export/weights/lenet_weights.pth (torch, 181861 bytes, 10 tensors)

conv1.weight f4 [6, 1, 5, 5]
-0.2278328 -0.060842607 -0.20491824 0.045681074 0.07295091 0.10374831 0.18217549 0.29804283
0.22007598 -0.023644995 0.29646268 0.18584982 0.09626593 0.17382737 0.13362929 0.07732422
0.10385662 0.050631683 -0.031114262 -0.31155232 0.124469504 -0.043974817 -0.27648833 -0.45393932
-0.2032504 0.081420444 0.0958281 -0.079791754 -0.08215467 -0.42386425 0.021396937 -0.09816382
-0.2770925 -0.36652413 -0.2420879 -0.05393765 -0.4265165 -0.36692104 -0.32796735 0.039355364
-0.31987625 -0.39519513 -0.08909005 -0.04374254 0.26949266 -0.4603235 -0.25116614 -0.010867017
0.1902429 0.3540217 0.1605469 -0.15061387 -0.16207863 0.14285222 0.25300014 -0.1855186
-0.17753483 -0.04964506 0.07444247 0.21423626 -0.3258127 -0.2824623 0.13188711 0.3035396
0.25747404 -0.21648566 0.073354304 0.36561215 0.028266452 0.07141278 0.09571493 0.22028324
0.0286988 0.10946831 -0.20502314 0.05385088 0.08236196 0.29926723 0.3045301 0.13307977
-0.1356637 -0.07715885 -0.16310407 0.36607018 0.22009963 -0.29060817 -0.27424714 -0.37148765
0.209756 0.24073742 -0.04819507 -0.338917 -0.31578618 -0.07678793 0.22643249 0.23516151
-0.11956358 -0.29022446 -0.12245741 0.25299492 0.021597112 -0.29647473 -0.1273212 -0.28190646
-0.09168164 0.037769876 -0.010133675 -0.0034783364 -0.19445474 -0.41892287 0.23235343 0.1489135
-0.046097893 -0.19707914 0.19124518 -0.046686213 -0.03407119 0.22355479 0.1792817 0.15162957
-0.026395991 0.19990925 0.29414183 0.10909058 0.21571712 0.06883719 0.089122824 0.18656729
0.10854241 0.19076152 -0.00096788583 0.07440694 0.13647899 0.094159774 0.121292464 -0.16827498
0.029106723 -0.077044904 0.13776942 0.11712121 -0.24132551 -0.036502954 0.04028965 -0.017570585
-0.014357311 0.11319352 -0.12122625 0.04865424 0.11410113 0.07346908
00000000: 004d 69be 1936 79bd 16d6 51be 141c 3b3d
00000010: 4967 953d fe79 d43d 368c 3a3e 1299 983e
00000020: 995b 613e 26b3 c1bc f5c9 973e 6a4f 3e3e
00000030: 1227 c53d cdff 313e 1ed6 083e 295c 9e3d
00000040: c8b2 d43d 2b63 4f3d 56e3 febc c983 9fbe
00000050: dee9 fe3d f01e 34bd e18f 8dbe bc6a e8be
00000060: df20 50be c3bf a63d 8641 c43d dc69 a3bd
00000070: b540 a8bd bc04 d9be a148 af3c 1d0a c9bd
00000080: 11df 8dbe 0da9 bbbe e4e5 77be baed 5cbd
00000090: 5f60 dabe 13dd bbbe 56eb a7be 1733 213d
000000a0: d2c6 a3be 0457 cabe d874 b6bd 612b 33bd
000000b0: f1fa 893e 86af ebbe d998 80be 930b 32bc
000000c0: 09cf 423e 5542 b53e 6866 243e 863a 1abe
000000d0: f1f7 25be da47 123e 3c89 813e 96f8 3dbe
000000e0: b1cb 35be 9e58 4bbd 4b75 983d c060 5b3e
000000f0: ecd0 a6be e69e 90be 6a0d 073e 8b69 9b3e
00000100: a3d3 833e 6bae 5dbe c83a 963d 8431 bb3e
00000110: 0c8f e73c dd40 923d 3006 c43d ee91 613e
00000120: bf19 eb3c ec30 e03d 96f1 51be be92 5c3d
00000130: 63ad a83d 8e39 993e 5feb 9b3e 1046 083e
00000140: 6deb 0abe 7605 9ebd c104 27be 8d6d bb3e
00000150: cc61 613e 98ca 94be 1f6a 8cbe a133 bebe
00000160: 47ca 563e df83 763e 3268 45bd 8786 adbe
00000170: baae a1be fe42 9dbd ebdd 673e 2ece 703e
00000180: c0dd f4bd 4d98 94be f3ca fabd 8d88 813e
00000190: 6dec b03c 89cb 97be 7d60 02be 0b56 90be
000001a0: 95c3 bbbd 96b4 1a3d b707 26bc cdf4 63bb
000001b0: 251f 47be 0f7d d6be 0fee 6d3e c87c 183e
000001c0: 25d1 3cbd 1dcf 49be c7d5 433e 0b3a 3fbd
000001d0: 3b8e 0bbd 8ceb 643e 9f95 373e c844 1b3e
000001e0: 683c d8bc 03b5 4c3e c299 963e e26a df3d
000001f0: f3e4 5c3e 83fa 8c3d 0786 b63d 7f0b 3f3e
00000200: 7c4b de3d fd56 433e b8b9 7dba aa62 983d
00000210: 26c1 0b3e d7d6 c03d 2f68 f83d 4750 2cbe
00000220: 3971 ee3c b8c9 9dbd 6d13 0d3e 3fdd ef3d
00000230: 091e 77be 1f84 15bd c306 253d 30f0 8fbc
00000240: ed3a 6bbc 01d2 e73d 7845 f8bd ab49 473d
00000250: daad e93d f576 963d

conv1.bias f4 [6]
0.18997467 0.15799123 -0.049406428 -0.011480776 0.16510849 0.048914265
00000000: b888 423e 74c8 213e 655e 4abd dd19 3cbc
00000010: 3312 293e 535a 483d

conv2.weight f4 [16, 6, 5, 5]
0.11794863 0.037091453 -0.047200687 0.08879723 0.15602113 0.076277316 0.046649944 0.15967965
0.1365295 0.088557936 0.09909109 0.1903129 0.11798902 0.14483051 -0.008344801 -0.003515865
0.012424256 -0.15398672 -0.060937513 0.03180664 -0.18932833 -0.1987096 -0.08448687 -0.06591267
-0.020706365 -0.015192727 -0.0005830099 0.19587298 0.1287437 -0.08977209 -0.10277293 0.14945278
0.189547 -0.20703104 -0.18051593 -0.0799389 0.0362225 0.07691872 -0.12919587 -0.0066511296
-0.030721512 -0.09345038 -0.25080508 -0.0018337914 -0.020320361 -0.15776294 -0.12117613 -0.20163934
-0.073586196 -0.06084446 0.032749202 -0.029350173 0.005969558 0.11505713 0.24363956 0.054168373
0.15008727 0.16104722 0.07811119 -0.10374656 -0.039131142 0.05754421 -0.022470905 -0.16805187
-0.052474312 -0.06838162 -0.19333473 -0.23022452 -0.005324167 -0.03866832 -0.0362224 -0.054257702
-0.1765259 -0.016623516 -0.004369316 -0.02689319 -0.078268535 -0.010279419 -0.23915164 -0.27747306
-0.05779201 -0.061361976 -0.3038991 -0.19553216 -0.10596403 -0.11404751 -0.099467106 -0.09323824
0.049368072 0.100237325 0.087726004 0.12477187 0.14915569 0.1522238 0.13023143 0.19098817
0.18751715 0.16078353 0.029470209 -0.008490606 -0.111753516 -0.11420337 0.10262027 0.077816375
0.068023704 -0.005857785 0.018434372 0.06696666 -0.06668801 -0.07645132 -0.068225935 -0.06595924
-0.09291432 -0.081650645 0.063365854 -0.12446949 -0.15423006 0.10078583 0.04842223 0.1023466
0.0357437 -0.017014682 -0.011388236 0.102791354 -0.04219744 0.02927342 0.13271967 -0.05111681
0.11280207 0.081406936 0.03863 -0.0846671 0.0032928933 -0.038856134 0.046060868 0.09676293
0.07953275 -0.05045872 -0.0030523615 0.03363988 0.112332374 0.02688526 -0.03855603 -0.14180647
-0.017778153 -0.11151516 -0.09907098 -0.038032793 -0.036420215 -0.11271151 -0.08381716 0.08730771
-0.004032917 -0.070281066 0.074098274 -0.07919205 -0.059370194 -0.19421487 -0.06651869 0.044651862
-0.08786954 -0.33250877 -0.17137085 -0.023409596 0.080730386 -0.079360925 0.039117415 0.009797871
0.0854715 0.0048280316 0.03804205 0.14107856 0.07006641 -0.055509225 0.063304245 -0.05268651
-0.04474269 -0.141458 -0.1942785 -0.17757857 -0.12646335 -0.046416294 -0.09982537 -0.010858935
-0.08284111 0.08629073 0.04115461 0.11030211 0.062818944 -0.18100558 0.18002614 -0.005338354
0.046668362 -0.027154427 -0.07059005 0.10512376 -0.11312473 -0.0123335635 -0.17033596 -0.12761806
0.035038073 0.020391498 -0.040295985 -0.007610607 -0.17263958 0.021729825 -0.072952844 -0.023227995
0.024355829 0.12732123 -0.22435163 -0.09167829 0.11055079 0.21074785 0.027837813 -0.13273442
0.07482993 0.13497132 0.07767862 -0.07892718 0.1184353 0.1243591 0.083722256 0.06358653
-0.062535346 0.032006152 -0.094037496 0.014278192 0.12940659 -0.012599499 -0.0020272026 0.039748818
0.06644933 0.22492242 -0.12875834 -0.059041146 -0.022150012 0.10533301 0.16894451 -0.12228481
-0.16501026 -0.09510918 -0.012102725 0.02806852 -0.3158005 -0.05280915 -0.09971786 -0.021009898
0.053245503 -0.16105866 0.035716444 -0.067265786 0.0627763 0.058811218 -0.07385698 -0.17037009
00000000: 0d8f f13d 35ed 173d 8255 41bd 52db b53d
00000010: 01c4 1f3e 4837 9c3d 0314 3f3d 1083 233e
00000020: 64ce 0b3e dd5d b53d 45f0 ca3d 63e1 423e
00000030: 3aa4 f13d 734e 143e a2b8 08bc 6d6a 66bb
00000040: 1b8f 4b3c b2ae 1dbe 9d99 79bd ae47 023d
00000050: 49df 41be 887a 4bbe 7407 adbd 39fd 86bd
00000060: 65a0 a9bc eaea 78bc 22d5 18ba ed92 483e
00000070: 63d5 033e 6eda b7bd 9d7a d2bd 260a 193e
00000080: 9c18 423e f2ff 53be 2bd9 38be 02b7 a3bd
00000090: 0b5e 143d 9087 9d3d ec4b 04be b8f1 d9bb
000000a0: aeab fbbc ea62 bfbd 8669 80be d45b f0ba
000000b0: e376 a6bc 9c8c 21be 312b f8bd 8b7a 4ebe
000000c0: 5cb4 96bd 0a38 79bd 0724 063d c66f f0bc
000000d0: 489c c33b 13a3 eb3d a67c 793e a8df 5d3d
000000e0: 7ab0 193e 90e9 243e c2f8 9f3d 1479 d4bd
000000f0: fa47 20bd 7ab3 6b3d e714 b8bc ca15 2cbe
00000100: 4eef 56bd aa0b 8cbd 8af9 45be fabf 6bbe
00000110: 5a76 aebb ac62 1ebd f05d 14bd 533d 5ebd
00000120: 35c3 34be 0a2e 88bc 7b2c 8fbb 1b4f dcbc
00000130: 414b a0bd 026b 28bc 2be4 74be f310 8ebe
00000140: 51b7 6cbd b256 7bbd aa98 9bbe 9539 48be
00000150: ab03 d9bd be91 e9bd 69b5 cbbd b1f3 bebd
00000160: 2d36 4a3d 3a49 cd3d b1a9 b33d 6588 ff3d
00000170: 45bc 183e 8ee0 1b3e 635b 053e 6792 433e
00000180: 7f04 403e 70a4 243e 826b f13c 2f1c 0bbc
00000190: 07df e4bd 75e3 e9bd 932a d23d 315e 9f3d
000001a0: 0350 8b3d aaf2 bfbb ae03 973c d125 893d
000001b0: b993 88bd 8292 9cbd 0aba 8bbd a315 87bd
000001c0: dd49 bebd 7438 a7bd f5c5 813d dce9 febd
000001d0: 7cee 1dbe cd68 ce3d 6356 463d 189b d13d
000001e0: fc67 123d 6062 8bbc b995 3abc 4684 d23d
000001f0: 39d7 2cbd d0ce ef3c aae7 073e dc5f 51bd
00000200: c604 e73d aeb8 a63d 7e3a 1e3d f265 adbd
00000210: 95cd 573b 9c27 1fbd 52aa 3c3d a52b c63d
00000220: 11e2 a23d cead 4ebd 210a 48bb f9c9 093d
00000230: 840e e63d 7a3e dc3c edec 1dbd b735 11be
00000240: 7da3 91bc 0f62 e4bd bae5 cabd 46c8 1bbd
00000250: 5d2d 15bd 4bd5 e6bd 55a8 abbd 62ce b23d
00000260: 8f26 84bb 85ef 8fbd d6c0 973d 712f a2bd
00000270: 292e 73bd 43e0 46be f33a 88bd dfe4 363d
00000280: f2f4 b3bd 973e aabe d77b 2fbe 7bc5 bfbc
00000290: f955 a53d fb87 a2bd 9539 203d 4087 203c
000002a0: af0b af3d 7734 9e3b fbd1 1b3d e676 103e
000002b0: fa7e 8f3d a45d 63bd a8a5 813d cfcd 57bd
000002c0: 1c44 37bd 5eda 10be f1f0 46be 28d7 35be
000002d0: 9c7f 01be 031f 3ebd 3e71 ccbd ade9 31bc
000002e0: 9aa8 a9bd 32b9 b03d bd91 283d 13e6 e13d
000002f0: 38a7 803d 8759 39be c658 383e 5ced aebb
00000300: 5327 3f3d f672 debc 8491 90bd 204b d73d
00000310: f0ad e7bd b712 4abc 8d6c 2ebe 4fae 02be
00000320: 1584 0f3d 120c a73c 670d 25bd 6662 f9bb
00000330: 6ec8 30be bf02 b23c 4d68 95bd a348 bebc
00000340: e085 c73c 7f60 023e 6fbc 65be d4c1 bbbd
00000350: 7468 e23d 49ce 573e 200c e43c 88eb 07be
00000360: 6f40 993d ec35 0a3e f815 9f3d 93a4 a1bd
00000370: 358e f23d fcaf fe3d 9376 ab3d a839 823d
00000380: 8812 80bd e218 033d bb96 c0bd 14ef 693c
00000390: 2983 043e 216e 4ebc d1da 04bb a8cf 223d
000003a0: 9616 883d 1052 663e 3ad9 03be 21d5 71bd
000003b0: f173 b5bc d5b8 d73d caff 2c3e 7570 fabd
000003c0: 73f8 28be 9ac8 c2bd 824a 46bc f4ef e53c
000003d0: 9ab0 a1be 684e 58bd e138 ccbd f31c acbc
000003e0: f517 5a3d 90ec 24be 684b 123d a5c2 89bd
000003f0: dc90 803d 08e4 703d 5442 97bd 7f75 2ebe

conv2.bias f4 [16]
0.051541045 -0.06326785 -0.018593835 -0.038844272 0.10614248 -0.04261769 0.017286498 0.08982715
-0.11415734 -0.008543746 0.08656123 0.030456224 0.008543497 0.013967167 -0.08716511 0.06440847
00000000: b41c 533d 9392 81bd 1952 98bc 2c1b 1fbd
00000010: 3b61 d93d e38f 2ebd 6a9c 8d3c 4cf7 b73d
00000020: 53cb e9bd 11fb 0bbc 0447 b13d 557f f93c
00000030: 06fa 0b3c 8bd6 643c 9f83 b2bd 97e8 833d

fc1.weight f4 [120, 256]
0.05277195 0.07643046 -0.028119477 0.011021978 0.015711846 0.009283814 0.04291535 0.08316952
0.02515112 0.022658909 0.024741417 0.08558867 -0.016349321 -0.061983436 -0.021032838 0.005104943
-0.09258948 -0.08923696 -0.04273794 -0.0067080087 0.036960352 0.04076406 0.009881964 0.068265654
0.15417331 0.041061506 -0.0571673 -0.0074610556 0.1324743 -0.06221546 0.0045249094 0.11142421
-0.099687606 -0.004052659 0.0311922 0.052791182 0.0543453 0.030392146 0.08326667 -0.08940848
-0.076009326 0.013887128 0.078765556 -0.041988507 -0.042172737 -0.012580057 -0.056190632 -0.16761315
-0.040002212 0.091517985 -3.6765905e-05 0.033988073 -0.11240824 0.030116558 0.061542306 -0.03491041
-0.09873107 -0.0018513092 0.098137595 0.028915502 -0.05295343 -0.031557377 -0.07077874 -0.12906049
0.013553949 0.11182455 0.05575323 -0.007112825 0.11573514 0.041320786 -0.053223267 -0.0048304275
-0.037953 -0.010823928 -0.011535216 -0.015280487 0.08254039 -0.052650284 -0.2611544 -0.16045044
0.04327063 0.03976288 -0.05246866 -0.041965153 0.1175904 0.06255446 0.0007349645 0.049638715
0.22268291 0.0836064 0.013092582 0.019687846 -0.067438595 -0.11522806 0.0064913924 -0.086484544
0.10356006 0.07917578 -0.03730432 0.07645127 0.10779318 0.07585126 0.0016197658 0.013627952
-0.043377496 0.036583263 0.040732663 -0.021025943 0.09601171 -0.03787915 -0.1887798 0.00038181432
-0.0179823 0.04963122 0.1652166 0.11795084 0.04092297 0.11969084 0.047040146 0.08205853
0.12111144 -0.01324267 0.016723903 -0.003253944 0.072638325 0.025804667 0.0111618135 0.022137804
-0.033540666 -0.045197908 0.033675723 0.05576901 0.020143485 0.036357548 -0.057105985 0.032790057
0.04485767 0.06392448 -0.054241963 0.021694848 -0.03427197 0.113621056 0.007274244 0.12388631
-0.111506514 0.015325156 0.058261495 -0.05645856 -0.11381929 -0.037290208 0.100587234 0.014004408
0.020389237 0.010491045 0.043321077 -0.028269665 -0.15236984 -0.036703344 0.039753743 -0.018408017
-0.0054770084 0.058124863 0.04666948 0.033343155 -0.009347998 0.02048696 0.048753884 0.011261229
-0.007166624 -0.053244404 -0.010027143 -0.016478164 -0.049976416 0.059067104 0.0009396356 -0.06710436
-0.023687052 0.04993558 -0.018674105 0.04156836 -0.08468263 -0.04537261 0.03357926 0.10070845
-0.024349136 0.0143209575 -0.011989962 -0.034050915 -0.10801762 -0.0825936 -0.16721176 -0.09140172
-0.0023411466 -0.14773817 -0.10706005 0.060994405 0.028962 -0.06757587 -0.060293473 0.020371841
-0.06995181 -0.040351506 -0.017129196 0.022807645 0.029015196 0.031330187 0.09970128 0.04427153
0.040386893 -0.020141594 -0.030156374 -0.010248481 -0.018723825 -0.02330538 -0.045873784 0.021089483
-0.15419434 -0.04182432 -0.014746331 0.014102403 -0.0048143393 0.014192018 -0.09037614 -0.08652772
0.009458927 -0.15661351 -0.09900193 0.021743326 -0.22515061 -0.07954529 -0.026003886 0.049007602
-0.009448954 0.0062049613 0.014749465 0.02128115 -0.12518544 -0.069932275 0.07357182 0.063530564
-0.030026343 -0.10436176 -0.036104098 0.0038594916 0.008064747 0.078225456 -0.016394261 -0.07413762
0.003547292 0.0511329 -0.06869696 -0.090825886 0.02420172 -0.072478294 0.028909296 0.24241862
00000000: 6627 583d 9387 9c3d d15a e6bc 8795 343c
00000010: 21b6 803c 231b 183c 02c8 2f3d c854 aa3d
00000020: b909 ce3c 2d9f b93c 83ae ca3c 1d49 af3d
00000030: 03ef 85bc 58e2 7dbd 0f4d acbc 5e47 a73b
00000040: 8e9f bdbd dec1 b6bd fa0d 2fbd dbce dbbb
00000050: bd63 173d 37f8 263d f6e7 213c ddce 8b3d
00000060: 9cdf 1d3e 1c30 283d 4228 6abd df7b f4bb
00000070: 58a7 073e a3d5 7ebd b145 943b 6032 e43d
00000080: 0429 ccbd 2bcc 84bb c986 ff3c 913b 583d
00000090: 2d99 5e3d f3f8 f83c b787 aa3d cb1b b7bd
000000a0: c7aa 9bbd d686 633c d64f a13d 24fc 2bbd
000000b0: 52bd 2cbd 951c 4ebc 2628 66bd c8a2 2bbe
000000c0: 5cd9 23bd c86d bb3d 1735 1ab8 1437 0b3d
000000d0: 4b36 e6bd 00b7 f63c c913 7c3d 38fe 0ebd
000000e0: 8433 cabd a1a7 f2ba 5dfc c83d 34e0 ec3c
000000f0: b2e5 58bd 4f42 01bd 72f4 90bd 6f28 04be
00000100: 6211 5e3c 4504 e53d 805d 643d b312 e9bb
00000110: 8c06 ed3d fc3f 293d a400 5abd 9048 9ebb
00000120: 9b74 1bbd d856 31bc 34fe 3cbc 025b 7abc
00000130: f00a a93d d3a7 57bd 08b6 85be 1f4d 24be
00000140: 8b3c 313d 67de 223d 61e9 56bd a7e3 2bbd
00000150: 3cd3 f03d 8d1c 803d a2aa 403a f751 4b3d
00000160: fd06 643e d539 ab3d 4582 563c 6848 a13c
00000170: 3f1d 8abd b0fc ebbd bfb5 d43b cf1e b1bd
00000180: 4c17 d43d e926 a23d 6acc 18bd 7c92 9c3d
00000190: acc2 dc3d e857 9b3d 524e d43a c647 5f3c
000001a0: 9aac 31bd 55d8 153d 4bd7 263d 993e acbc
000001b0: caa1 c43d 2b27 1bbd 7e4f 41be 402e c839
000001c0: 9e4f 93bc 1b4a 4b3d 8a2e 293e 3690 f13d
000001d0: d89e 273d 7920 f53d 2bad 403d 4d0e a83d
000001e0: 4609 f83d c9f7 58bc 9100 893c 1f40 55bb
000001f0: 67c3 943d 4f64 d33c 0ae0 363c 575a b53c
00000200: f061 09bd 7121 39bd 8eef 093d 0c6e 643d
00000210: f303 a53c a7eb 143d f7e7 69bd de4e 063d
00000220: adbc 373d d6ea 823d d22c 5ebd 65b9 b13c
00000230: c460 0cbd 28b2 e83d c85c ee3b 1bb8 fd3d
00000240: 875d e4bd 5d16 7b3c 9ba3 6e3d 1741 67bd
00000250: 171a e9bd 9ebd 18bd ae00 ce3d bf72 653c
00000260: 5407 a73c a2e2 2b3c 7171 313d c995 e7bc
00000270: d706 1cbe 3f56 16bd d2d4 223d 69cc 96bc
00000280: 7a78 b3bb 5614 6e3d 7f28 3f3d d592 083d
00000290: 5828 19bc 45d4 a73c 27b2 473d 0581 383c
000002a0: 00d6 eabb ce16 5abd e348 24bc 37fd 86bc
000002b0: 12b4 4cbd 59f0 713d e151 763a 036e 89bd
000002c0: 590b c2bc 4089 4c3d 70fa 98bc 9643 2a3d
000002d0: 166e adbd a1d8 39bd 688a 093d 3b40 ce3d
000002e0: d777 c7bc 73a2 6a3c 8c71 44bc f978 0bbd
000002f0: 5838 ddbd d526 a9bd 8f39 2bbe d330 bbbd
00000300: ec6d 19bb ad48 17be 4d42 dbbd 45d5 793d
00000310: b741 ed3c 3865 8abd 4af6 76bd d9e2 a63c
00000320: e542 8fbd 9f47 25bd 8752 8cbc 19d7 ba3c
00000330: 47b1 ed3c 1554 003d 2f30 cc3d 1056 353d
00000340: ba6c 253d fcff a4bc 800a f7bc 3fe9 27bc
00000350: b562 99bc edea bebc 26e6 3bbd dac3 ac3c
00000360: 1fe5 1dbe fa4f 2bbd 989a 71bc c40d 673c
00000370: 9bc1 9dbb a385 683c 2017 b9bd 7235 b1bd
00000380: 9ef9 1a3c 4b5f 20be 86c1 cabd 0f1f b23c
00000390: e28d 66be a4e8 a2bd 1a06 d5bc 32bc 483d
000003a0: c9cf 1abc fd52 cb3b bda7 713c ce55 ae3c
000003b0: 9d30 00be a738 8fbd d3ac 963d 501c 823d
000003c0: cef9 f5bc 9ebb d5bd e4e1 13bd 86ef 7c3b
000003d0: 0022 043c ab34 a03d 424d 86bc 77d5 97bd
000003e0: af79 683b bb70 513d feb0 8cbd ec02 babd
000003f0: af42 c63c 806f 94bd 30d3 ec3c 963c 783e

fc1.bias f4 [120]
-0.027729336 0.01695923 -0.029719243 0.022605984 -0.011352825 0.023728682 0.006150524 0.023757618
-0.046153136 -0.012377854 0.034767445 -0.046125304 0.030807076 0.031713877 -0.054599658 0.010895511
-0.0481053 0.046457864 -0.004424697 0.019582868 0.0402138 -0.07742799 0.013299152 0.053773064
0.05851646 0.094600305 0.013457097 -0.037878692 0.10892124 0.05532644 -0.06607072 -0.026545517
-0.056368187 0.017796844 -0.009022487 0.025903802 0.009327143 -0.031549342 -0.082863085 0.057673443
0.0128399925 0.057832897 -0.07604729 -0.06271062 -0.07484274 -0.023634333 0.02696874 0.039505474
-0.059656687 0.019086478 0.0057906173 0.037806526 0.084524386 0.04599711 0.0833178 0.080126666
-0.008690282 -0.017275365 -0.06763225 -0.04440517 0.08442906 0.07192454 -0.070445776 0.009639334
0.05512936 -0.062576614 -0.041971102 0.087230474 0.011887962 -0.058663044 -0.024962949 0.00012166
0.003170499 0.016956136 0.029751906 0.00072806416 -0.03652571 0.118288994 0.054030377 -0.028563965
0.0054238876 -0.004903 0.03481381 0.05677582 0.012579799 0.039627507 -0.016165525 0.03435601
0.04878593 0.082434125 0.012636821 0.030876711 -0.06611994 -0.053672772 -0.026583849 0.049119562
0.018889103 0.06363686 -0.05499874 -0.008426391 -0.029691206 -0.06093783 -0.012593572 0.0034199138
0.005187315 0.045572244 0.015146314 0.08181046 0.064569555 -0.053141113 0.009666839 0.04027359
0.05563573 -0.04009494 -0.07846884 -0.0016672118 -0.039251737 -0.04081545 -0.0042810165 -0.07461288
00000000: a228 e3bc 15ee 8a3c c575 f3bc 2f30 b93c
00000010: 3301 3abc a762 c23c 568a c93b 569f c23c
00000020: 120b 3dbd 7ccc 4abc 4f68 0e3d e3ed 3cbd
00000030: 1f5f fc3c 69e6 013d e4a3 5fbd 1683 323c
00000040: 100a 45bd 9a4a 3e3d 0cfd 90bb 406c a03c
00000050: 3ab7 243d 9192 9ebd b0e4 593c 2541 5c3d
00000060: f5ae 6f3d cebd c13d 287b 5c3c b026 1bbd
00000070: 1912 df3d fa9d 623d 1650 87bd fc75 d9bc
00000080: 54e2 66bd b0ca 913c 0ed3 13bc 3634 d43c
00000090: e0d0 183c e239 01bd 1fb4 a9bd fd3a 6c3d
000000a0: d55e 523c 30e2 6c3d aebe 9bbd 6d6e 80bd
000000b0: 2747 99bd ca9c c1bc 8ced dc3c 7ed0 213d
000000c0: 925a 74bd 3f5b 9c3c 38bf bd3b 04db 1a3d
000000d0: 1f1b ad3d 7767 3c3d 86a2 aa3d 7319 a43d
000000e0: af61 0ebc 1185 8dbc c782 8abd 32e2 35bd
000000f0: 25e9 ac3d 2c4d 933d e045 90bd 4cee 1d3c
00000100: 53cf 613d 2b28 80bd e4e9 2bbd e4a5 b23d
00000110: bac5 423c a948 70bd 197f ccbc b723 ff38
00000120: 26c8 4f3b 98e7 8a3c 45ba f33c 8fdb 3e3a
00000130: fc9b 15bd 8041 f23d f54e 5d3d fafe e9bc
00000140: deba b13b 58a9 a0bb ed98 0e3d c38d 683d
00000150: 801b 4e3c 7450 223d 906d 84bc e3b8 0c3d
00000160: c1d3 473d 39d3 a83d ab0a 4f3c 28f1 fc3c
00000170: e469 87bd fbd7 5bbd 5fc6 d9bc 9831 493d
00000180: 52bd 9a3c 0b54 823d 5c46 61bd d80e 0abc
00000190: f93a f3bc f299 79bd 4555 4ebc a220 603b
000001a0: 5afa a93b f6a9 3a3d 3f28 783c 3e8c a73d
000001b0: 0b3d 843d 7faa 59bd a961 1e3c ebf5 243d
000001c0: 4be2 633d 983a 24bd 45b4 a0bd 5886 daba
000001d0: 6ec6 20bd 1a2e 27bd c547 8cbb a3ce 98bd

fc2.weight f4 [84, 120]
0.0054872786 -0.015307145 -0.06622077 0.13885391 0.05308405 -0.068163894 0.049625654 0.068007044
0.0008135418 0.08115097 0.018756688 0.011603906 -0.10178657 0.07561319 0.06450578 0.110119276
-0.11488009 -0.05698531 0.06042131 -0.108900435 -0.08401703 -0.02318831 0.0015491294 -0.15713277
0.0740483 0.016119407 0.15582524 0.00044771738 0.14767796 -0.04811826 -0.032711495 -0.059666477
-0.24510919 0.013974281 -0.032458927 -0.07125917 -0.08690073 -0.012859735 -0.019016134 -0.10355029
-0.029501945 0.13898104 -0.14254607 -0.028284537 -0.04268828 0.10473339 -0.14335534 0.12762181
0.07285829 -0.009666329 0.06816175 0.032294728 -0.017144922 -0.0039452533 0.11796113 0.1317495
0.043632865 -0.010821627 0.07167107 0.05321317 -0.020221768 -0.0384496 0.04793829 -0.01700212
-0.071538374 -0.08614086 0.08558358 -0.05847444 0.042221442 -0.005007308 0.05775613 0.03317248
0.03120519 0.023928137 0.034852445 0.035448465 0.03694321 0.05288468 0.0014032458 0.10277417
0.007227104 -0.01609992 -0.032199368 -0.008210534 0.04398904 -0.07605382 0.09092281 0.01564744
0.1498188 0.12929802 -0.07939034 0.18347238 0.0013962593 -0.06815524 -0.053652484 0.18409185
0.009203047 0.17259008 -0.030033635 -0.09872267 -0.097243845 -0.00030599468 -0.020110214 0.045059714
0.038374633 -0.013474199 0.030715019 0.11497663 -0.10100839 0.10673989 -0.09626 -0.007574295
0.103016794 0.042904064 0.054295234 0.030304598 -0.043804307 0.113699 -0.041697424 -0.0523503
0.061098002 0.04706445 0.077293605 0.021769512 -0.016635453 0.050213277 0.022922998 -0.0542221
-0.089935064 0.10968949 0.0388386 0.12997456 0.04278473 0.09023916 0.0031865907 0.057854336
0.10991404 0.093191855 0.020683076 -0.007006594 0.13919698 0.13184273 -0.077485844 0.0052891616
-0.0032590008 -0.17410667 0.052333623 -0.0459212 -0.0139320865 0.0020454752 -0.08320178 -0.033703994
-0.037767887 -0.05918026 0.13974893 -0.02028293 -0.01274553 0.11188227 0.034345284 0.14624621
0.095353045 0.05912951 0.07280587 0.09916733 -0.050178982 0.005470969 -0.09293456 -0.16738896
0.08692275 -0.20761959 -0.08876233 0.057400208 -0.07043136 0.02153559 -0.12653504 -0.19294104
0.0047497656 -0.036737658 -0.07316153 0.08944182 0.055812117 -0.07838642 -0.012389445 0.017858047
-0.038649652 0.050326172 0.14045087 -0.16809653 -0.038701765 -0.01740934 -0.02972104 -0.019027814
0.089572705 -0.011740277 -0.043693464 0.05499806 -0.0067495746 0.0657087 -0.019508405 0.10965117
-0.039303407 0.089646034 -0.025053183 -0.068283975 -0.05938724 0.113494724 0.11908205 -0.00018294681
-0.0897985 -0.06634466 -0.0075781485 0.10050171 -0.17609732 -0.061079893 -0.0770423 0.13662533
0.13531348 0.0029812767 -0.05610754 -0.07398065 0.04849861 -0.0010002641 0.015021408 0.040542718
-0.10906757 -0.010517364 0.030427355 -0.16725461 -0.19573292 -0.030671319 0.22611992 0.026821332
0.015713992 0.022924438 0.05412152 -0.028619707 0.035921235 -0.06465856 -0.023545263 0.072354764
0.09796364 0.038538396 -0.1057722 -0.09381959 0.011838483 0.06141226 0.032902785 -0.08804787
-0.06001858 0.113166526 0.04567862 -0.0701492 -0.10236471 0.017894212 -0.0074415775 0.13872847
00000000: a1ce b33b d2ca 7abc c19e 87bd b82f 0e3e
00000010: a96e 593d 8399 8bbd 4544 4b3d 4747 8b3d
00000020: de43 553a 7b32 a63d a0a7 993c 4f1e 3e3c
00000030: 7a75 d0bd 17db 9a3d 9b1b 843d 3786 e13d
00000040: 4146 ebbd 6e69 69bd 567c 773d 3107 dfbd
00000050: 1f11 acbd 69f5 bdbc 280c cb3a 6ae7 20be
00000060: a3a6 973d d90c 843c a790 1f3e 9cbb ea39
00000070: e438 173e a717 45bd 7dfc 05bd d664 74bd
00000080: e7fd 7abe 62f4 643c a7f3 04bd 54f0 91bd
00000090: 03f9 b1bd a3b1 52bc b9c7 9bbc 2d12 d4bd
000000a0: 10ae f1bc 0c51 0e3e 99f7 11be f9b4 e7bc
000000b0: e8d9 2ebd 767e d63d becb 12be 4baf 023e
000000c0: ba36 953d 865f 1ebc 6398 8b3d 7a47 043d
000000d0: 8273 8cbc 2f47 81bb 9b95 f13d 57e9 063e
000000e0: 60b8 323d 324d 31bc 48c8 923d 0ef6 593d
000000f0: 1fa8 a5bc 547d 1dbd f15a 443d 0848 8bbc
00000100: b682 92bd 9f6a b0bd 7246 af3d e582 6fbd
00000110: 64f0 2c3d 5814 a4bb b191 6c3d dedf 073d
00000120: 07a2 ff3c f104 c43c 70c1 0e3d 6932 113d
00000130: c351 173d 9b9d 583d 1eed b73a 447b d23d
00000140: 58d1 ec3b fbe3 83bc 7ce3 03bd 7a85 06bc
00000150: da2d 343d 1bc2 9bbd bd35 ba3d 0f2f 803c
00000160: 196a 193e b366 043e 6797 a2bd 2fe0 3b3e
00000170: b002 b73a f994 8bbd b5c2 5bbd 9382 3c3e
00000180: 60c8 163c 74bb 303e 1909 f6bc 1c2f cabd
00000190: c827 c7bd e96d a0b9 2dbe a4bc 8990 383d
000001a0: b82e 1d3d e3c2 5cbc 109e fb3c de78 eb3d
000001b0: 7ddd cebd 729a da3d f623 c5bd cb31 f8bb
000001c0: 78fa d23d 2cbc 2f3d ae64 5e3d 5941 f83c
000001d0: 256c 33bd 05db e83d ebca 2abd 456d 56bd
000001e0: e641 7a3d a7c6 403d 1c4c 9e3d fa55 b23c
000001f0: 1347 88bc 70ac 4d3d 03c9 bb3c fe17 5ebd
00000200: e02f b8bd e2a4 e03d 3915 1f3d 0d18 053e
00000210: 0b3f 2f3d 4fcf b83d 1fd6 503b abf8 6c3d
00000220: 9d1a e13d 5fdb be3d 8e6f a93c 9297 e5bb
00000230: a789 0e3e c801 073e e6b0 9ebd b450 ad3b
00000240: f694 55bb 0549 32be c85b 563d de17 3cbd
00000250: 6843 64bc 610d 063b b265 aabd 330d 0abd
00000260: 80b2 1abd 0067 72bd 581a 0f3e 6328 a6bc
00000270: a1d2 50bc 8822 e53d a4ad 0c3d 91c1 153e
00000280: 7548 c33d c931 723d 3e1b 953d 3e18 cb3d
00000290: 7a88 4dbd d045 b33b 7954 bebd 0368 2bbe
000002a0: 8e04 b23d 3b9a 54be 06c9 b5bd 7b1c 6b3d
000002b0: 513e 90bd 686b b03c 6792 01be 5692 45be
000002c0: eca3 9b3b 3a7a 16bd b6d5 95bd 462d b73d
000002d0: 3f9b 643d 0f89 a0bd 19fd 4abc 0a4b 923c
000002e0: 194f 1ebd d122 4e3d 5ad2 0f3e 7f21 2cbe
000002f0: be85 1ebd 089e 8ebc 8a79 f3bc 38e0 9bbc
00000300: e571 b73d 4a5a 40bc ebf7 32bd a545 613d
00000310: 892b ddbb 4892 863d 17d0 9fbc cb90 e03d
00000320: 9cfc 20bd 5798 b73d 553c cdbc 78d8 8bbd
00000330: 0940 73bd ec6f e83d 4ae1 f33d 69d5 3fb9
00000340: 47e8 b7bd b6df 87bd 1e52 f8bb d7d3 cd3d
00000350: db52 34be e92e 7abd 5ac8 9dbd 83e7 0b3e
00000360: 9e8f 0a3e 8661 433b 05d1 65bd 2b83 97bd
00000370: 7aa6 463d 4b1b 83ba 5a1c 763c 1f10 263d
00000380: d15e dfbd 0651 2cbc ca42 f93c cb44 2bbe
00000390: 366e 48be 6b42 fbbc fb8b 673e 69b8 db3c
000003a0: a1ba 803c 08cc bb3c 87ae 5d3d e073 eabc
000003b0: 2522 133d b56b 84bd ffe1 c0bc bc2e 943d
000003c0: 29a1 c83d 70da 1d3d 189f d8bd 7c24 c0bd
000003d0: 32f6 413c 6c8b 7b3d 12c5 063d 7152 b4bd
000003e0: 0bd6 75bd dac3 e73d 8119 3b3d 62aa 8fbd
000003f0: 97a4 d1bd e296 923c 7ad8 f3bb d60e 0e3e

fc2.bias f4 [84]
-0.035240714 -0.08116343 -0.048984006 -0.019463472 0.021540092 -0.12098964 -0.009749082 0.13159236
0.08586648 0.10842936 0.08542699 0.060570914 -0.008883449 0.018551856 -0.036849905 0.065214574
0.1177072 0.080975376 -0.0453539 0.033812713 0.10298198 0.06349068 0.12947716 0.03484416
0.016577745 0.027836422 0.0028357483 -0.009206962 -0.07412353 0.01224597 0.11508126 0.054843966
0.029447041 0.016071996 -0.06635126 -0.0014741053 0.023288006 0.08676838 0.08825851 0.0695308
0.040483203 -0.01049627 0.060499836 -0.028561395 -0.08041011 0.05917218 0.07442358 0.0173196
-0.031004952 0.04112895 0.015141035 -9.602992e-05 -0.053675257 -0.038699873 -0.04027002 -0.07553519
-0.053151805 -0.041888393 -0.019865187 -0.04876789 -0.014220285 -0.039802536 -0.055980217 -0.0024335582
0.103685185 -0.08583652 0.07452336 -0.13743424 0.13310176 -0.106131166 -0.004123298 0.10158907
-0.01966562 0.048298668 0.15597178 0.055671223 0.060695168 0.035877258 -0.06629533 0.02882556
-0.042980716 -0.003211706 0.02810882 0.01648086
00000000: 9158 10bd 0339 a6bd 74a3 48bd dc71 9fbc
00000010: d974 b03c 6bc9 f7bd 9dba 1fbc 26c0 063e
00000020: c4da af3d 3610 de3d 59f4 ae3d 3519 783d
00000030: e38b 11bc 10fa 973c edef 16bd 388f 853d
00000040: 7910 f13d 6bd6 a53d 03c5 39bd 337f 0a3d
00000050: 37e8 d23d 6707 823d a995 043e c0b8 0e3d
00000060: 0dce 873c 3509 e43c f6d7 393b ccd8 16bc
00000070: 14ce 97bd 52a3 483c b9af eb3d 11a4 603d
00000080: ec3a f13c 6ba9 833c 2be3 87bd c436 c1ba
00000090: 7dc6 be3c 9fb3 b13d e1c0 b43d 2a66 8e3d
000000a0: b7d1 253d 8cf8 2bbc adce 773d 96f9 e9bc
000000b0: 0eae a4bd 875e 723d 646b 983d d5e1 8d3c
000000c0: 19fe fdbc d476 283d 1b12 783c ac63 c9b8
000000d0: 96da 5bbd c283 1ebd 2df2 24bd 32b2 9abd
000000e0: b5b5 59bd 2a93 2bbd 51bc a2bc d7c0 47bd
000000f0: 33fc 68bc fc07 23bd 834b 65bd 557c 1fbb
00000100: e658 d43d 0fcb afbd b49f 983d 90bb 0cbe
00000110: d44b 083e 4c5b d9bd bb1c 87bb ee0d d03d
00000120: cb19 a1bc d3d4 453d 11b7 1f3e 8207 643d
00000130: 7f9b 783d 08f4 123d d9c5 87bd 9523 ec3c
00000140: 8c0c 30bd 7c7b 52bb 7844 e63c de02 873c

fc3.weight f4 [10, 84]
0.10627458 -0.17754623 0.10936028 0.012997971 -0.10024736 0.032086156 0.0829372 -0.14400278
-0.17710157 0.14206189 0.104956985 0.075791515 -0.12690711 -0.122015126 0.054097105 -0.08322831
0.04098802 -0.21717314 0.01619883 -0.08485877 -0.16916594 -0.011141059 0.03899161 -0.03352064
-0.005572951 -0.076216884 -0.047581483 0.04804789 0.096985355 0.04136911 0.06534729 -0.049196344
0.020254212 -0.018125985 0.09098055 0.10380398 -0.053173084 -0.15658477 -0.012058857 -0.107314244
-0.1489046 0.08665864 0.03917227 0.058868162 -0.14448486 -0.1148303 0.07814282 0.13293265
0.16831776 -0.19936694 0.11501437 -0.121706456 -0.07740229 -0.17989756 0.12281217 -0.074422084
-0.12199213 -0.18749583 -0.097208366 -0.03047077 -0.05424159 -0.06899911 -0.00077739434 0.03682671
-0.13543054 0.0028170154 0.02877332 0.03254553 0.04174912 0.06874804 0.00031376065 -0.16064711
0.06239771 -0.23023371 0.03120303 -0.02981026 -0.17532142 0.10302967 0.09857023 0.09092505
0.04863852 0.05475074 -0.06799225 0.087040156 -0.10461927 0.087345205 -0.1595007 -0.05263002
-0.12986772 -0.12588091 0.05119333 -0.015343306 -0.1879445 0.06305889 -0.09968647 0.0823097
0.082202785 -0.0007611211 -0.04919235 0.12487379 -0.12791704 -0.00129361 -0.107663624 0.151833
0.04642348 0.15706727 -0.023230955 -0.013694885 -0.009298035 -0.14332217 -0.020653881 -0.04057645
0.060897477 -0.13238446 -0.04103579 0.076837294 0.06251022 0.01608434 -0.06180518 0.06749421
-0.05051986 0.03577615 0.04577368 0.1310056 0.097273245 0.13189271 0.16057104 -0.1936679
-0.14123209 0.09302678 -0.16326259 -0.0031990535 0.015759664 0.11102266 -0.14093132 0.28584862
-0.06638426 0.04066374 0.041770272 0.09259045 -0.04626262 0.11101628 0.066183895 -0.054979607
-0.1004269 0.0040962743 -0.027662707 0.006900086 -0.14043766 -0.19556443 -0.15938155 -0.057812355
-0.08674016 -0.07583372 0.07029141 0.10442697 0.16137736 -0.083055235 -0.09947474 0.060524326
-0.060286902 -0.13538451 -0.12933944 0.09022274 0.05743318 -0.0595027 0.03177937 -0.1633657
-0.16082759 -0.113790914 -0.1699567 0.1672413 -0.15832776 -0.023240918 0.18370295 -0.08861436
0.05948845 -0.19609319 0.13098472 -0.10551085 -0.2485454 -0.21062104 -0.049258504 -0.10481041
0.070922226 0.036463037 0.0010775363 -0.06634608 0.09440241 -0.050826263 -0.007598583 0.17551233
0.044008475 0.028878033 -0.14771838 0.01476257 -0.15368654 -0.016103217 -0.13040912 -0.00604387
0.00832794 0.12253316 0.043318085 0.09139883 0.016554354 -0.013738871 -0.028768966 -0.11024537
-0.06274437 0.07402245 0.037959654 -0.20023239 -0.03283966 0.03317788 0.09932152 0.12245286
-0.07429381 0.05797419 0.0891974 -0.09519946 -0.0046372064 0.047422383 0.017038591 -0.029940715
0.05856145 -0.0700757 0.007060196 0.010944279 -0.030304229 -0.0919412 -0.05911159 0.11967719
-0.1216137 -0.16319345 0.04215777 -0.0068385056 -0.06627648 -0.031215547 0.07924007 0.0399226
-0.13598263 -0.113517225 0.041777812 0.07446091 0.119221844 0.007643758 0.11716218 0.12205418
-0.2825189 -0.0505775 0.06876869 -0.111361295 -0.10922791 0.030374747 -0.07901525 -0.12088929
00000000: 7da6 d93d aece 35be 48f8 df3d 71f5 543c
00000010: 7d4e cdbd c66c 033d fbda a93d 7775 13be
00000020: 1d5a 35be ac78 113e b0f3 d63d 9538 9b3d
00000030: f0f3 01be 11e3 f9bd ed94 5d3d 9b73 aabd
00000040: 0ee3 273d a362 5ebe 69b3 843c 6fca adbd
00000050: d639 2dbe fd88 36bc abb5 1f3d f04c 09bd
00000060: 4d9d b6bb 9917 9cbd cde4 42bd ddcd 443d
00000070: 42a0 c63d a872 293d cdd4 853d 1b82 49bd
00000080: 29ec a53c f27c 94bc 0354 ba3d 2e97 d43d
00000090: 05cc 59bd c257 20be 8392 45bc 92c7 dbbd
000000a0: 737a 18be 167a b13d 1a73 203d be1f 713d
000000b0: d7f3 13be 262c ebbd 5809 a03d 7f1f 083e
000000c0: 7e5b 2c3e d926 4cbe a78c eb3d 3c41 f9bd
000000d0: 1885 9ebd 1137 38be f284 fb3d 9b6a 98bd
000000e0: 03d7 f9bd e8fe 3fbe 2e15 c7bd d69d f9bc
000000f0: 6e2c 5ebd 684f 8dbd 0dca 4bba 9bd7 163d
00000100: 4eae 0abe ad9d 383b 07b6 eb3c 764e 053d
00000110: 2001 2b3d c6cb 8c3d 3e80 a439 ad80 24be
00000120: be94 7f3d 63c2 6bbe 7f9d ff3c a534 f4bc
00000130: 7587 33be 3801 d33d 30df c93d ea36 ba3d
00000140: 2f39 473d 5042 603d 853f 8bbd 1c42 b23d
00000150: a142 d6bd 0be2 b23d 2754 23be 9392 57bd
00000160: 0bfc 04be ede6 00be 19b0 513d 7d62 7bbc
00000170: 8674 40be 0525 813d 6c28 ccbd fd91 a83d
00000180: ef59 a83d f985 47ba eb7d 49bd d4bd ff3d
00000190: affc 02be 598e a9ba bf7e dcbd 1c7a 1b3e
000001a0: 8c26 3e3d 3ed6 203e d84e bebc 8360 60bc
000001b0: c956 18bc 0cc3 12be 5432 a9bc 7e33 26bd
000001c0: a26f 793d cb8f 07be 2515 28bd df5c 9d3d
000001d0: 5c05 803d 4ec3 833c 6e27 7dbd 683a 8a3d
000001e0: eaed 4ebd 038a 123d 2f7d 3b3d 5526 063e
000001f0: 3237 c73d e20e 073e bc6c 243e e150 46be
00000200: 259f 10be d384 be3d 4f2e 27be 36a7 51bb
00000210: 691a 813c d95f e33d 4d50 10be c05a 923e
00000220: 79f4 87bd 068f 263d 4e17 2b3d 10a0 bd3d
00000230: df7d 3dbd 815c e33d 6c8b 873d 4c32 61bd
00000240: 9eac cdbd 0a3a 863b e79c e2bc 1e1a e23b
00000250: e4ce 0fbe 0b42 48be eb34 23be a6cc 6cbd
00000260: d3a4 b1bd b64e 9bbd f1f4 8f3d cfdd d53d
00000270: 1b40 253e dd18 aabd 6ab9 cbbd 5be8 773d
00000280: 66ef 76bd 3da2 0abe 8f71 04be b3c6 b83d
00000290: 0e3f 6b3d 1ab9 73bd 162b 023d 5749 27be
000002a0: fdaf 24be 360b e9bd 2109 2ebe 4e41 2b3e
000002b0: ac20 22be bd63 bebc a01c 3c3e 727b b5bd
000002c0: 29aa 733d a7cc 48be dc20 063e 1316 d8bd
000002d0: af82 7ebe 0bad 57be 49c3 49bd d7a6 d6bd
000002e0: ac3f 913d 445a 153d 1e3c 8d3a 74e0 87bd
000002f0: 0d56 c13d 332f 50bd 89fd f8bb 81b9 333e
00000300: 3b42 343d a091 ec3c 7d43 17be b5de 713c
00000310: 0160 1dbe e5ea 83bc f889 05be a80b c6bb
00000320: e971 083c aaf2 fa3d 4e6e 313d 4f2f bb3d
00000330: ff9c 873c 0019 61bc e5ac ebbc 53c8 e1bd
00000340: 1f80 80bd 1599 973d 957b 1b3d b809 4dbe
00000350: e182 06bd 87e5 073d 1569 cb3d 91c8 fa3d
00000360: 5a27 98bd 5876 6d3d 20ad b63d eff7 c2bd
00000370: b5f3 97bb f93d 423d 8494 8b3c 3b46 f5bc
00000380: 22de 6f3d d983 8fbd 3759 e73b a24f 333c
00000390: 9340 f8bc ab4b bcbd ff1e 72bd 5119 f53d
000003a0: 9b10 f9bd 2f1c 27be a0ad 2c3d 8b15 e0bb
000003b0: f7bb 87bd bfb7 ffbc 9e48 a23d e185 233d
000003c0: 083f 0bbe b87b e8bd 361f 2b3d f67e 983d
000003d0: 952a f43d 7d78 fa3b baf2 ef3d 8bf7 f93d
000003e0: 51a6 90be 5a2a 4fbd 99d6 8c3d 6411 e4bd
000003f0: e2b2 dfbd 76d4 f83c bfd2 a1bd ce94 f7bd

fc3.bias f4 [10]
0.027461661 -0.06852602 -0.04221618 -0.07222265 -0.0040293387 0.08988852 -0.14698716 -0.116349414
0.036702015 0.116485074
00000000: 47f7 e03c 5f57 8cbd e0ea 2cbd 78e9 93bd
00000010: 8b08 84bb 7917 b83d cd83 16be 9a48 eebd
00000020: da54 163d ba8f ee3d
