export/weights/lenet_weights.pth (torch, 181861 bytes, 10 tensors)

conv1.weight f4 [6, 1, 5, 5]
0.16886221 0.26569965 0.2020292 0.07708732 0.16442946 -0.121655144 -0.066091396 0.20968165
0.13369946 0.19943845 -0.2988266 -0.27825227 -0.1916975 0.0029936878 0.2994007 -0.19413142
-0.27930543 -0.42918342 -0.42164463 -0.38209856 0.25111586 0.12462827 0.13196938 -0.09410038
-0.013725945 0.12892504 0.15172607 -0.18867706 -0.08939671 0.03898489 0.056656186 0.24169332
0.31623602 0.394329 0.32381484 0.13506353 0.24121283 0.13701907 0.20648634 0.21487567
0.12645583 -0.1485853 0.041868597 -0.18944292 -0.2071636 0.044533465 -0.15540591 -0.34304556
-0.19864549 -0.26490706 0.009377741 0.12112932 -0.13456354 -0.12105616 -0.1513979 -0.118575856
-0.36077383 -0.35070446 0.11042006 0.22573544 -0.25178924 -0.16717055 -0.009932809 0.17739308
-0.05158975 -0.2771184 0.14142427 0.2300656 0.2203678 0.15295258 0.18666121 0.22722206
0.20766695 0.022524312 0.16816972 0.1866771 0.17939617 0.2015476 -0.11542977 -0.011925856
-0.059927076 0.1662853 0.018730806 -0.06634715 -0.2577186 0.09817863 0.35043138 0.1393374
-0.2761571 -0.2700146 -0.1065354 0.21160612 0.18597135 -0.24249089 -0.28050336 0.1522001
0.17873262 0.0065372996 -0.034863234 -0.10496319 -0.10379471 -0.30339277 0.04726286 0.2733647
0.09373789 -0.22523752 -0.16693571 -0.0016277765 0.26434293 -0.031875934 -0.35564446 -0.19380865
0.4054818 0.026535835 -0.22795966 0.10518125 0.106220186 0.22503494 -0.00952906 0.021830164
0.007083712 -0.0706624 -0.19698259 -0.11413742 -0.023340411 0.264029 0.24392746 0.02383541
0.12977955 0.05874279 0.085544884 0.047060177 0.026818287 -0.042496208 0.10793768 0.016199237
0.15085769 0.19140959 -0.03587315 -0.29309952 -0.18449648 -0.040469486 -0.3485319 -0.49545166
-0.09390108 -0.42091224 -0.62226444 -0.39405715 -0.24701643 0.09170462
00000000: 37ea 2c3e c909 883e bee0 4e3e f5df 9d3d
00000010: 3260 283e 5526 f9bd ed5a 87bd c9b6 563e
00000020: 83e8 083e 9839 4c3e cdff 98be 1577 8ebe
00000030: 594c 44be bf31 443b 0c4b 993e 63ca 46be
00000040: 1f01 8fbe eebd dbbe cee1 d7be 6ca2 c3be
00000050: 4292 803e 1b3d ff3d fb22 073e b3b7 c0bd
00000060: c9e2 60bc ed04 043e 145e 1b3e 8f34 41be
00000070: 9f15 b7bd 9fae 1f3d 5110 683d 747e 773e
00000080: b0e9 a13e 7ee5 c93e 0fcb a53e 184e 0a3e
00000090: 7f00 773e ba4e 0c3e 2871 533e 5e08 5c3e
000000a0: a37d 013e bf26 18be 687e 2b3d 53fd 41be
000000b0: b222 54be b968 363d ba22 1fbe aba3 afbe
000000c0: b969 4bbe e6a1 87be 19a5 193c a612 f83d
000000d0: 06cb 09be 4bec f7bd 0d08 1bbe e6d7 f2bd
000000e0: 59b7 b8be 898f b3be ea23 e23d 3127 673e
000000f0: 85ea 80be c22e 2bbe 38bd 22bc 88a6 353e
00000100: c64f 53bd 77e2 8dbe 86d1 103e 5196 6b3e
00000110: 19a8 613e 9a9f 1c3e 1e24 3f3e e6ac 683e
00000120: a5a6 543e e884 b83c af34 2c3e 4828 3f3e
00000130: a1b3 373e 7e62 4e3e 7166 ecbd aa64 43bc
00000140: 1876 75bd b246 2a3e 5971 993c 04e1 87bd
00000150: b1f3 83be e111 c93d be6b b33e 77ae 0e3e
00000160: 7764 8dbe 5b3f 8abe 3b2f dabd 46af 583e
00000170: 466f 3e3e 884f 78be 239e 8fbe 58da 1b3e
00000180: af05 373e d836 d63b c0cc 0ebd f1f6 d6bd
00000190: 5292 d4bd 4c56 9bbe b396 413d 75f6 8b3e
000001a0: a7f9 bf3d aaa4 66be 32f1 2abe 1e5b d5ba
000001b0: f557 873e 5790 02bd 0817 b6be c675 46be
000001c0: 4f9b cf3e ae61 d93c 426e 69be 4469 d73d
000001d0: f889 d93d 8f6f 663e c61f 1cbc 2cd5 b23c
000001e0: 7c1e e83b 73b7 90bd ceb5 49be e1c0 e9bd
000001f0: 6434 bfbc cf2e 873e 1fc8 793e 7a42 c33c
00000200: eee4 043e 489c 703d 2832 af3d 2cc2 403d
00000210: 06b2 db3c 8110 2ebd 6e0e dd3d 43b4 843c
00000220: 707a 1a3e e000 443e b9ef 12bd 2411 96be
00000230: a5ec 3cbe 55c3 25bd c672 b2be d7ab fdbe
00000240: 364f c0bd cf81 d7be b94c 1fbf dcc1 c9be
00000250: e0f1 7cbe a2cf bb3d

conv1.bias f4 [6]
0.03974178 -0.028611155 -0.10464121 -0.06419188 0.05736381 0.117798924
00000000: 47c8 223d f161 eabc 214e d6bd 0877 83bd
00000010: 50f6 6a3d 9040 f13d

conv2.weight f4 [16, 6, 5, 5]
-0.08419469 -0.11123118 -0.11436069 -0.09158368 -0.082621746 -0.186717 -0.020685986 -0.059745595
0.04301777 0.09766092 0.17628324 0.24856392 0.24018848 0.14441182 -0.16608694 -0.048316475
0.08125094 0.1752869 0.29417083 0.033304404 -0.057372883 -0.12186192 -0.04165827 0.061554067
0.142825 -0.106673166 -0.111336984 0.023169816 -0.026010131 0.07001275 0.048250236 -0.12329275
-0.26318878 -0.29923907 -0.1780296 0.15062384 0.18777244 0.1780516 0.06392946 -0.11001928
-0.013475654 -0.014282017 0.111555226 0.17312619 0.13899964 -0.01603916 0.11287983 -0.04186121
0.093309395 0.05061728 0.09752632 -0.050883953 -0.10529756 -0.054308075 -0.1150453 0.18463545
0.20250104 0.047480557 -0.10350546 -0.11113256 0.090419 0.042012807 -0.020234065 -0.06482808
0.015547067 -0.08037861 -0.10827511 -0.057700906 -0.08112408 -0.11946205 0.011604494 -0.052446608
0.029040722 0.0048591164 -0.07609922 -0.0007367562 -0.005257512 0.021401646 -0.0029073486 -0.06838203
-0.08406156 0.024615701 -0.030250225 0.03711824 -0.11431116 -0.06063415 -0.14988801 -0.088257134
-0.0035318157 -0.0099888 0.11424635 -0.0061920644 0.0065624043 -0.08462082 0.07118135 0.044714067
0.003150715 0.0061075184 -0.08750464 0.030633666 0.07207544 0.06513395 0.033750992 -0.008454832
-0.15273555 -0.050204817 0.09513314 0.04127423 0.10085579 -0.08323351 -0.13766399 -0.11549429
-0.10010776 -0.09186464 0.09467993 -0.028017046 -0.010340461 -0.009549831 -0.14421807 -0.10982743
0.0871365 0.05558328 0.058291018 0.08776153 -0.042158347 0.10332778 0.040026907 -0.0737393
0.041769464 0.050318845 -0.042331804 -0.19085003 -0.29575923 -0.3214753 -0.2639227 0.12078944
0.10000127 -0.08067381 -0.04479161 -0.2478633 -0.030932447 -0.05721178 0.08721699 0.09593515
0.051034145 0.0038104258 -0.08323385 -0.020018855 -0.068848684 0.10760463 -0.040845558 -0.05684687
0.07936649 -0.01965322 -0.08803176 -0.006046242 -0.17703612 -0.0248631 -0.0123189045 -0.08632645
-0.061435986 0.029648777 0.0079826815 -0.110932216 -0.00055064994 0.04407071 0.009348996 0.15804411
0.15346566 0.075267166 0.01347497 0.01931208 0.17018262 0.06215824 0.0771629 0.08184823
0.061003096 0.062174365 0.04255825 -0.13907771 -0.124525696 -0.099317536 -0.04693827 0.0022959898
-0.14002842 -0.10419007 -0.14260475 -0.0082898475 0.07206431 0.12132411 0.038592 0.0064092968
0.10428848 0.17917188 0.10728857 -0.038367122 -0.13464114 0.042545088 -0.008463726 0.009649007
0.006880737 0.025007166 -0.073731825 0.0051933746 -0.06345498 -0.09370631 0.050153885 -0.0140033355
-0.0352645 0.12186785 0.027853247 0.0002719122 0.05181001 0.122718655 0.13891622 -0.15270038
-0.1329261 -0.18106289 -0.033683717 -0.1229822 0.039916337 -0.050954595 -0.03912187 -0.107562
-0.15608631 -0.034788795 0.05685052 0.06280341 -0.07762885 -0.030175278 0.15894091 0.05187396
0.12850945 0.008431347 -0.024570346 0.030401664 -0.08038456 0.07421444 -0.13894105 -0.03425715
-0.045371838 -0.0684667 0.042323604 -0.099769995 -0.1151502 0.014832675 0.027846852 -0.017125884
0.037646577 0.024847707 0.03668432 -0.004074944 0.07337155 0.047101934 -0.11116954 -0.03562504
00000000: 446e acbd 2ccd e3bd f035 eabd 3990 bbbd
00000010: 9735 a9bd be32 3fbe a875 a9bc ccb7 74bd
00000020: 6733 303d 7302 c83d 9883 343e 8a87 7e3e
00000030: f8f3 753e b1e0 133e b212 2abe 7fe7 45bd
00000040: e566 a63d 697e 333e 8f9d 963e 336a 083d
00000050: d4ff 6abd be92 f9bd dda1 2abd 1e20 7c3d
00000060: b840 123e 7677 dabd a504 e4bd a0ce bd3c
00000070: 3313 d5bc d862 8f3d 0aa2 453d e980 fcbd
00000080: aec0 86be dd35 99be 644d 36be 233d 1a3e
00000090: 6b47 403e 2953 363e 73ed 823d ca51 e1bd
000000a0: fdc8 5cbc 1fff 69bc 1177 e43d fe47 313e
000000b0: ec55 0e3e 8e64 83bc 8a2d e73d a976 2bbd
000000c0: ff18 bf3d 1154 4f3d e1bb c73d b16b 50bd
000000d0: 3fa6 d7bd 2572 5ebd df9c ebbd 1311 3d3e
000000e0: 6f5c 4f3e f97a 423d acfa d3bd 7899 e3bd
000000f0: 992d b93d 9f15 2c3d e9c1 a5bc 96c4 84bd
00000100: 20b9 7e3c 8a9d a4bd 57bf ddbd c957 6cbd
00000110: 6224 a6bd 85a8 f4bd c720 3e3c 41d2 56bd
00000120: cfe6 ed3c 3939 9f3b e8d9 9bbd df22 41ba
00000130: 3547 acbb 8152 af3c 3789 3ebb e10b 8cbd
00000140: 7828 acbd dea6 c93c 52cf f7bc 4c09 183d
00000150: f81b eabd 845b 78bd 3e7c 19be 28c0 b4bd
00000160: 0976 67bb 10a8 23bc fef9 e93d cde6 cabb
00000170: 7009 d73b ae4d adbd 87c7 913d 1926 373d
00000180: 3a7c 4e3b 9421 c83b a235 b3bd 74f3 fa3c
00000190: 4a9c 933d f364 853d 7b3e 0a3d 2386 0abc
000001a0: b566 1cbe 91a3 4dbd 2ad5 c23d 2b0f 293d
000001b0: 7b8d ce3d 5576 aabd caf7 0cbe 4588 ecbd
000001c0: 4c05 cdbd 8723 bcbd 8de7 c13d 0184 e5bc
000001d0: 096b 29bc e576 1cbc e7ad 13be 34ed e0bd
000001e0: 9f74 b23d 4bab 633d 90c2 6e3d 51bc b33d
000001f0: 3bae 2cbd 849d d33d 41f3 233d a104 97bd
00000200: 7516 2b3d 221b 4e3d 1d64 2dbd 316e 43be
00000210: c16d 97be 6998 a4be e020 87be 7460 f73d
00000220: 77cd cc3d 4f38 a5bd 6877 37bd e0cf 7dbe
00000230: 0b66 fdbc e656 6abd d29e b23d a679 c43d
00000240: 2e09 513d 56b8 793b 8276 aabd 95fe a3bc
00000250: 8a00 8dbd d15f dc3d ac4d 27bd 43d8 68bd
00000260: e68a a23d caff a0bc ff49 b4bd 8e1f c6bb
00000270: f548 35be b3ad cbbc 3bd5 49bc eccb b0bd
00000280: 4da4 7bbd fee1 f23c cbc9 023c 6e30 e3bd
00000290: 7e59 10ba 7d83 343d 882c 193c 51d6 213e
000002a0: 1a26 1d3e ac25 9a3d 1fc6 5c3c 5e34 9e3c
000002b0: 5a44 2e3e a399 7e3d 9507 9e3d 0ba0 a73d
000002c0: 62de 793d 8caa 7e3d 8f51 2e3d 636a 0ebe
000002d0: 5407 ffbd fe66 cbbd 5842 40bd 5178 163b
000002e0: 9c63 0fbe 9a61 d5bd fb06 12be 24d2 07bc
000002f0: 7496 933d c678 f83d a512 1e3d 1405 d23b
00000300: 3395 d53d d578 373e 1cba db3d d826 1dbd
00000310: 5edf 09be c243 2e3d 71ab 0abc de16 1e3c
00000320: ce77 e13b d4db cc3c b600 97bd 2f2d aa3b
00000330: aff4 81bd 18e9 bfbd 296e 4d3d 3f6e 65bc
00000340: 8271 10bd da95 f93d 7e2c e43c 708f 8e39
00000350: bc36 543d eb53 fb3d 0e40 0e3e 7d5d 1cbe
00000360: c81d 08be 8d68 39be f0f7 09bd 17de fbbd
00000370: 507f 233d c4b5 50bd 413e 20bd 7749 dcbd
00000380: 17d5 1fbe b27e 0ebd 17dc 683d 139f 803d
00000390: e0fb 9ebd 2532 f7bc 68c1 223e ca79 543d
000003a0: fb97 033e a223 0a3c c047 c9bc e90c f93c
000003b0: a9a0 a4bd befd 973d 9046 0ebe 3a51 0cbd
000003c0: d2d7 39bd 4538 8cbd 845b 2d3d 3654 ccbd
000003d0: ded3 ebbd c004 733c 151f e43c 954b 8cbc
000003e0: 4c33 1a3d 6b8d cb3c 4c42 163d 1c87 85bb
000003f0: d343 963d f5ed 403d dbac e3bd 90eb 11bd

conv2.bias f4 [16]
0.047422573 -0.06440566 -0.070070975 0.010965521 0.0147251 0.024780093 0.016054286 0.034052763
-0.030578734 0.11328173 -0.040162638 -0.009978864 0.052968897 0.08830676 0.060707014 0.1197987
00000000: 2c3e 423d 1de7 83bd 5f81 8fbd bba8 333c
00000010: 8c41 713c 9fff ca3c 4784 833c e97a 0b3d
00000020: 4180 fabc 4000 e83d 9481 24bd 647e 23bc
00000030: eaf5 583d 2dda b43d eba7 783d 0559 f53d

fc1.weight f4 [120, 256]
0.1699624 -0.002737311 -0.0059659546 0.039859947 -0.068827026 0.06531019 0.09398777 0.09650812
-0.06812901 -0.06159633 -0.027489783 -0.0904277 -0.05761918 -0.0074077216 -0.06800093 -0.03874904
0.046360753 -0.02325265 0.013159145 -0.0486961 -0.008177069 -0.062455274 -0.07346107 0.034043692
-0.041749597 -0.1568363 -0.035990436 -0.05604885 -0.033473548 -0.08950362 -0.115295336 -0.002064129
-0.010854434 0.04997285 -0.015187849 0.029539313 -0.005394292 -0.07806551 -0.10052909 0.048295047
0.0022492246 0.027560133 -0.060064077 -0.012373635 -0.086295895 0.026639558 -0.01631026 -0.023759058
-0.027995262 -0.04159857 -0.011523299 -0.0016298202 -0.08003915 -0.050144374 0.018100353 -0.13849787
-0.054748077 -0.121723935 0.025799291 0.049234577 -0.12837233 0.020782415 0.10196194 0.0032024384
-0.0687982 -0.10407093 -0.14267756 0.0057969396 0.018386226 -0.012756211 -0.0044954713 0.08971295
0.011952102 0.049495112 -0.08684514 -0.0148264095 -0.015192533 -0.115773566 -0.03471643 -0.11411454
0.06981646 0.12581061 0.053472072 0.020402115 0.02873725 -0.05430035 -0.12161861 0.022111328
0.0015455752 -0.02296292 -0.043288935 0.017879881 -0.04624246 -0.05076119 -0.04102888 -0.02469472
-0.13784885 -0.003281738 0.012167332 -0.09353282 -0.11230116 -0.05073609 -0.047935825 0.027259786
0.0025320682 0.010252937 0.05465097 0.08954051 -0.068904676 -0.09634601 -0.091715895 0.027001854
-0.009358796 0.04979776 -0.07507053 -0.027391639 0.06074806 -0.02098266 -0.06919471 -0.004644777
-0.026784066 -0.098593555 0.02634814 -0.018970475 -0.026754437 -0.05594598 0.005669781 -0.07719249
-0.0005175111 0.07952884 -0.03833929 -0.03766833 0.0135013275 -0.00813631 0.055083834 0.045430344
-0.13319595 -0.08566886 -0.021973662 0.052640177 -0.019233197 -0.026486374 -0.0061774123 -0.013870092
-0.02046583 -0.034928948 -0.023950787 -0.055181507 0.018860606 -0.08675438 -0.124571264 -0.05433167
-0.016794866 -0.003957464 -0.022081146 -0.06712692 -0.0009328715 -0.079792 0.010110479 -0.0706161
-0.09083337 -0.06718096 -0.15298781 -0.004490586 -0.050948314 -0.0998408 -0.0070412857 0.07105872
-0.021100651 -0.08893052 -0.0050643017 -0.01812318 0.115423515 -0.053673908 -0.07998922 -0.114208706
-0.15722124 -0.16598219 -0.05959443 -0.046653297 0.0067519075 -0.06075029 -0.005709193 0.03639704
-0.07278381 -0.05082022 -0.11054219 -0.038452312 -0.11050261 -0.06333862 0.03574787 0.075359605
-0.09506823 -0.09329861 -0.047889642 -0.03473073 0.02355041 -0.15256713 -0.084982924 0.06665639
-0.024140518 -0.15436919 -0.13231611 0.09577688 -0.044433467 -0.09140539 -0.07093605 -0.0008137224
-0.064673804 -0.045765065 -0.050295237 -0.03644212 -0.105943955 -0.081380464 -0.008821309 -0.026917083
0.016086364 -0.018399766 -0.05921339 -0.059377696 -0.031761207 0.027534513 -0.007002237 -0.067712136
-0.069184504 -0.05640654 -0.06170131 0.09321873 -0.0106997145 -0.039985053 0.08911482 0.011404854
-0.07324774 -0.04676752 -0.057477705 0.0562872 -0.04121185 -0.015325602 -0.10208341 -0.09805728
-0.012330572 -0.029781843 -0.016844863 0.015141814 -0.0067977016 -0.09829931 -0.114687994 0.018119087
-0.055625178 -0.073486425 -0.05527231 -0.05505192 -0.038364198 -0.14866924 0.027734913 -0.05943827
00000000: a00a 2e3e 7564 33bb 0e7e c3bb 2f44 233d
00000010: 2ff5 8cbd 59c1 853d a97c c03d 0da6 c53d
00000020: 3987 8bbd 6f4c 7cbd 4132 e1bc 2832 b9bd
00000030: 1702 6cbd 79bc f2bb 1244 8bbd 50b7 1ebd
00000040: c6e4 3d3d 577c bebc 7499 573c 9075 47bd
00000050: 1df9 05bc 1ad1 7fbd c272 96bd 6671 0b3d
00000060: a001 2bbd b299 20be b56a 13bd 7b93 65bd
00000070: 8f1b 09bd ad4d b7bd f61f ecbd 5746 07bb
00000080: ccd6 31bc 55b0 4c3d 75d6 78bc 6efc f13c
00000090: 9ac2 b0bb cfe0 9fbd 32e2 cdbd 07d1 453d
000000a0: ba67 133b cac5 e13c c005 76bd c9ba 4abc
000000b0: e7bb b0bd 343b da3c 189d 85bc 5ba2 c2bc
000000c0: 5256 e5bc 4363 2abd 38cc 3cbc b19f d5ba
000000d0: 91eb a3bd 3064 4dbd 3147 943c 63d2 0dbe
000000e0: 853f 60bd 664a f9bd 0959 d33c 32aa 493d
000000f0: 0974 03be e23f aa3c 6cd1 d03d 00e0 513b
00000100: 12e6 8cbd 2423 d5bd 111a 12be 41f4 bd3b
00000110: b69e 963c 6dff 50bc bf4e 93bb 6cbb b73d
00000120: c0d2 433c 63bb 4a3d dddb b1bd 78ea 72bc
00000130: 1aea 78bc b11a edbd d132 0ebd e2b4 e9bd
00000140: effb 8e3d 7fd4 003e 8805 5b3d 5622 a73c
00000150: 626a eb3c 0b6a 5ebd 2e13 f9bd d122 b53c
00000160: e694 ca3a bc1c bcbc bd4f 31bd d478 923c
00000170: bc68 3dbd f7ea 4fbd e60d 28bd 954c cabc
00000180: 4028 0dbe 6d12 57bb 7d59 473c 238e bfbd
00000190: 27fe e5bd a5d0 4fbd 5b58 44bd ea4f df3c
000001a0: 0ef1 253b effb 273c b2d9 5f3d 0461 b73d
000001b0: e51d 8dbd 0f51 c5bd 8bd5 bbbd fe32 dd3c
000001c0: a355 19bc bcf8 4b3d 94be 99bd 6e64 e0bc
000001d0: f5d2 783d d4e3 abbc f5b5 8dbd 3733 98bb
000001e0: 426a dbbc 6beb c9bd 0ed8 d73c f867 9bbc
000001f0: 1f2c dbbc 9d27 65bd 92c9 b93b 1917 9ebd
00000200: 95a9 07ba 04e0 a23d a909 1dbd 1b4a 1abd
00000210: ac34 5d3c 284e 05bc 969f 613d 2b15 3a3d
00000220: 8564 08be 2873 afbd 1c02 b4bc 3a9d 573d
00000230: f08e 9dbc f4f9 d8bc e46b cabb 623f 63bc
00000240: f5a7 a7bc a811 0fbd 7134 c4bc 0106 62bd
00000250: 8f81 9a3c 48ac b1bd 381f ffbd e38a 5ebd
00000260: 6395 89bc 9dad 81bb 85e3 b4bc d779 89bd
00000270: f28b 74ba fd69 a3bd 6ca6 253c 2d9f 90bd
00000280: d906 babd 2c96 89bd d6a8 1cbe c425 93bb
00000290: 2eaf 50bd 5579 ccbd 96ba e6bb 3c87 913d
000002a0: 46db acbc 3421 b6bd 71f2 a5bb 1077 94bc
000002b0: 2a63 ec3d 2cd9 5bbd 63d1 a3bd 41e6 e9bd
000002c0: 9bfe 20be 3cf7 29be 4a19 74bd 8717 3fbd
000002d0: 1b3f dd3b 4cd5 78bd 2f14 bbbb 1015 153d
000002e0: ae0f 95bd dd28 50bd f263 e2bd 2c80 1dbd
000002f0: 314f e2bd aeb7 81bd 5c6c 123d 2356 9a3d
00000300: 22b3 c2bd 5713 bfbd ee27 44bd cf41 0ebd
00000310: caec c03c 8f3a 1cbe 870b aebd 2583 883d
00000320: 56c2 c5bc f512 1ebe e07d 07be ab26 c43d
00000330: deff 35bd c032 bbbd eb46 91bd fc4f 55ba
00000340: b373 84bd 2674 3bbd 6102 4ebd 5544 15bd
00000350: 25f9 d8bd cdaa a6bd 4087 10bc 3781 dcbc
00000360: 8dc7 833c 1bbb 96bc bd89 72bd 0736 73bd
00000370: 0a18 02bd 0f90 e13c 0573 e5bb a9ac 8abd
00000380: 9bb0 8dbd 8b0a 67bd 83ba 7cbd 76e9 be3d
00000390: db4d 2fbc 5ec7 23bd d581 b63d 6ddb 3a3c
000003a0: e902 96bd 4d8f 3fbd be6d 6bbd 688d 663d
000003b0: c2cd 28bd 3c18 7bbc 1b11 d1bd 41d2 c8bd
000003c0: 2b06 4abc 0df9 f3bc 3dfe 89bc 5f15 783c
000003d0: 41bf debb 2651 c9bd 8ae1 eabd 7b6e 943c
000003e0: 3ad7 63bd 0d80 96bd 3865 62bd 1f7e 61bd
000003f0: c723 1dbd c03c 18be 5434 e33c 8b75 73bd

fc1.bias f4 [120]
-0.061991535 0.05572749 0.07088165 -0.09495045 0.005270211 -0.049262397 -0.035298668 -0.07200829
-0.0749675 -0.038619116 -0.011050566 -0.009001773 0.06410081 -0.009694616 -0.08047331 -0.035839137
-0.027790952 -0.05528849 0.051293254 0.02732227 -0.051413003 0.066896446 0.011241692 -0.035546005
0.0056147696 0.015802287 -0.031179622 0.005585304 0.03064233 -0.028089691 -0.0016472224 0.07550244
0.04339999 -0.029842747 0.017726466 -0.039783586 -0.0026667425 0.021753026 0.034327425 -0.045563385
0.04205783 0.055537637 -0.005852189 0.035295587 0.001053142 -0.04802242 -0.04089702 0.018910008
-0.0340444 0.095880754 0.026482973 0.02972312 0.038441587 0.07674639 -0.021892823 0.05357941
-0.02607749 0.0148833245 0.13689516 0.07233389 -0.0227066 -0.0016536363 0.07035256 -0.024201669
-0.0756774 0.01677253 -0.047405813 0.03996866 -0.019743433 0.09906371 -0.027932564 0.021504164
-0.01637267 0.0061913086 0.041531555 0.002305396 0.050933957 0.089452416 0.03371947 -0.0045944992
-0.059823085 -0.07280095 -0.0032573165 -0.06968383 -0.05134355 -0.0412366 0.07957493 -0.014006388
0.034298792 0.042069547 0.0024420084 0.02923649 -0.0075325244 0.040501762 -0.012607262 0.02605514
-0.011206011 -0.0095581785 -0.06905787 -0.039812494 0.026107363 0.065089844 -0.046882868 0.0030554961
-0.07224262 0.024394482 -0.041938066 0.055084005 0.02498113 0.015485151 0.030425416 -0.06148618
0.07920389 0.0027459804 -0.013819891 -0.06240855 -0.06044503 -0.012899994 -0.0010045524 0.06761095
00000000: d6ea 7dbd 8242 643d 662a 913d 6275 c2bd
00000010: bcb1 ac3b 5ec7 49bd 5695 10bd 1579 93bd
00000020: 9088 99bd 142f 1ebd 6f0d 35bc 2c7c 13bc
00000030: 4947 833d 2bd6 1ebc 31cf a4bd 0fcc 12bd
00000040: daa9 e3bc 2f76 62bd e018 523d f4d2 df3c
00000050: 7196 52bd 0101 893d 132f 383c b098 11bd
00000060: 1afc b73b cc73 813c 686c ffbc ed04 b73b
00000070: a005 fb3c 5a1c e6bc 9de7 d7ba 06a1 9a3d
00000080: 30c4 313d c778 f4bc 1837 913c 1df4 22bd
00000090: 84c4 2ebb 6733 b23c ea9a 0c3d aca0 3abd
000000a0: d544 2c3d 6f7b 633d b8c3 bfbb 1b92 103d
000000b0: 9509 8a3a 28b3 44bd a283 27bd 29e9 9a3c
000000c0: 2472 0bbd 215d c43d d2f2 d83c e77d f33c
000000d0: ed74 1d3d 362d 9d3d 9458 b3bc 1576 5b3d
000000e0: 76a0 d5bc 30d9 733c 3f2e 0c3e ca23 943d
000000f0: 3103 babc d4be d8ba 0115 903d 9442 c6bc
00000100: c1fc 9abd 8b66 893c 992c 42bd 2db6 233d
00000110: fbbc a1bc eae1 ca3d d5d2 e4bc 8029 b03c
00000120: fa1f 86bc 76e0 ca3b fe1c 2a3d 2016 173b
00000130: 20a0 503d d432 b73d 6d1d 0a3d 748d 96bb
00000140: 0d09 75bd aa18 95bd b478 55bb 65b6 8ebd
00000150: 9d4d 52bd b6e7 28bd 2ef8 a23d 0d7b 65bc
00000160: e47c 0c3d 1e51 2c3d 1a0a 203b 5d81 ef3c
00000170: 65d3 f6bb 2de5 253d b08e 4ebc 9771 d53c
00000180: 6b99 37bc e899 1cbc 366e 8dbd 6d12 23bd
00000190: 1cdf d53c d34d 853d 4008 40bd b83e 483b
000001a0: f0f3 93bd f0d6 c73c 40c7 2bbd c49f 613d
000001b0: 3aa5 cc3c 6eb5 7d3c b93e f93c efd8 7bbd
000001c0: a635 a23d e8f5 333b d36c 62bc 1ca0 7fbd
000001d0: 3595 77bd 7f5a 53bc 2fab 83ba 9c77 8a3d

fc2.weight f4 [84, 120]
0.105071165 0.15392688 0.15231344 0.07768082 0.034986515 0.043694716 0.055748183 -0.038438104
-0.122637816 -0.026828097 -0.0024700193 0.07250147 0.06990066 0.0072305226 -0.0042999424 -0.09381343
0.015200932 0.04852262 -0.014134094 0.009675909 -0.13405347 0.09811958 0.09282606 0.13882793
0.072613284 0.07003365 0.004060005 0.037665863 0.02540372 0.03595972 0.065557025 -0.040608898
-0.13641684 0.16124608 -0.011608362 0.12353991 0.068950675 -0.06878007 -0.0299226 0.028539823
0.03221594 0.029283738 -0.04032761 0.03669814 0.05471488 0.026220378 0.051488616 0.044001825
-0.07545873 0.0007437283 -0.05257358 -0.027586969 -0.022649381 0.1458264 0.044856686 0.11610044
-0.058177512 0.009284883 0.056496203 -0.05493678 0.004619719 0.0010757562 -0.05128868 -0.10013705
-0.01724221 -0.11450115 0.016899394 0.10094313 -0.040999867 0.0061900346 -0.08451565 0.01187659
-0.08204588 0.013365123 0.12557805 0.005648604 -0.043038666 -0.10294944 0.073473155 0.017827187
-0.03526108 -0.056876164 -0.053621206 -0.06599797 -0.0045237145 -0.17890358 0.053436156 0.03298941
0.02533611 0.0013459795 -0.05033524 0.11538848 0.034900654 -0.16159351 -0.17227878 -0.092667095
-0.04580711 -0.09186611 -0.012120898 0.018038012 -0.046642583 -0.064063646 -0.03682417 0.022946252
-0.0573508 0.09000762 -0.060682867 -0.013105165 -0.038106583 0.06096601 -0.03298465 -0.082442306
0.019502467 -0.073550776 -0.062226437 -0.028449599 0.04540386 0.03300502 0.06765493 0.026342383
-0.09290754 -0.07458454 -0.05091062 0.049438436 -0.0551558 -0.06628156 0.14807235 0.13390397
0.17158403 -0.067249306 -0.07620995 0.020176817 0.09954205 -0.04030283 0.09187296 -0.1137121
0.054530144 0.022486428 -0.08524277 -0.03419177 -0.034589916 -0.071588315 -0.12623942 0.06358856
-0.030816616 -0.08445877 0.11769166 0.10064449 -0.019612905 -0.057153516 0.030705784 -0.03331086
-0.057613384 -0.020638369 0.055479847 -0.054249924 0.05643078 0.13154843 -0.09941343 -0.011342486
-0.06325128 -0.17024602 0.15992112 -0.012531911 -0.021615524 -0.028349832 -0.097534955 0.016339814
0.07593307 -0.14859112 0.21815939 0.015062422 0.05818546 -0.09597837 0.1115569 -0.005309696
0.12409789 0.075663134 0.09944485 0.093401335 -0.04027169 0.10814878 -0.084820725 0.02834643
-0.12869349 0.061268464 -0.041607052 -0.0025084014 0.02474976 0.019465612 0.0073144883 0.024925359
0.13330641 -0.068642996 -0.06980567 0.07129094 -0.14667313 -0.004150548 0.02162042 0.00012615742
0.08000502 0.06699112 -0.0040231133 0.0006793658 0.06717617 0.084432006 -0.028856523 0.15777373
0.06759442 -0.06816322 0.048822835 -0.029560436 0.123554826 0.1499704 -0.04832438 0.121651955
0.0035398148 0.0043017403 -0.053686325 -0.08203862 -0.081269905 -0.054321766 0.036636908 -0.005992421
0.14754769 0.017445514 0.082132705 -0.024605608 -0.227461 0.0024672847 -0.15437526 0.066676915
0.043363843 0.07270406 0.09115509 0.0060580275 0.08055127 -0.03779638 -0.10518624 0.06394004
0.07210745 -0.079586394 0.008652331 0.039334163 -0.08127694 -0.115123 -0.1099741 0.08089937
-0.043402873 0.0051058317 0.023286726 -0.019177102 0.02636051 -0.03694071 0.017740894 -0.009239301
00000000: 8d2f d73d 029f 1d3e 0ef8 1b3e 1f17 9f3d
00000010: 054e 0f3d 3bf9 323d 3558 643d 4671 1dbd
00000020: 8929 fbbd 99c6 dbbc 0ce0 21bb a77b 943d
00000030: 1428 8f3d 05ee ec3b 88e6 8cbb 4121 c0bd
00000040: 540d 793c a8bf 463d b092 67bc b487 1e3c
00000050: 5045 09be ebf2 c83d 971b be3d e928 0e3e
00000060: 46b6 943d cd6d 8f3d ca09 853b 8547 1a3d
00000070: 761b d03c 804a 133d c342 863d 8455 26bd
00000080: dbb0 0bbe b11d 253e 0031 3ebc 7e02 fd3d
00000090: 0336 8d3d 91dc 8cbd 3e20 f5bc 59cc e93c
000000a0: ddf4 033d 73e4 ef3c 902e 25bd ca50 163d
000000b0: b61c 603d 1ecc d63c bae5 523d 423b 343d
000000c0: 1b8a 9abd c3f6 423a 6557 57bd 11fe e1bc
000000d0: 328b b9bc 8453 153e a5bb 373d 11c6 ed3d
000000e0: 8b4b 6ebd 9f1f 183c 9068 673d 6405 61bd
000000f0: 0361 973b 6300 8d3a 1414 52bd a714 cdbd
00000100: 893f 8dbc 947f eabd 9970 8a3c 46bb ce3d
00000110: 7aef 27bd c6d5 ca3b 8b16 adbd 0796 423c
00000120: ac07 a8bd 64f9 5a3c 8897 003e ed17 b93b
00000130: 5049 30bd 28d7 d2bd 1879 963d 520a 923c
00000140: ec6d 10bd fbf6 68bd e9a1 5bbd f229 87bd
00000150: ab3b 94bb 8032 37be dfdf 5a3d e71f 073d
00000160: ac8d cf3c 946b b03a 532c 4ebd cc50 ec3d
00000170: fdf3 0e3d c578 25be d969 30be 3fc8 bdbd
00000180: 3ca0 3bbd 4d24 bcbd bb96 46bc 74c4 933c
00000190: 4b0c 3fbd cd33 83bd f1d4 16bd c7f9 bb3c
000001a0: ace8 6abd ea55 b83d 998e 78bd 0cb7 56bc
000001b0: a615 1cbd 7fb7 793d ea1a 07bd 83d7 a8bd
000001c0: a3c3 9f3c caa1 96bd 26e1 7ebd 220f e9bc
000001d0: 66f9 393d 4630 073d ab8e 8a3d fbcb d73c
000001e0: 4f46 bebd c8bf 98bd a787 50bd f57f 4a3d
000001f0: 0ceb 61bd a0be 87bd 47a0 173e 1f1e 093e
00000200: b9b3 2f3e 01ba 89bd f613 9cbd da49 a53c
00000210: b4dc cb3d 9514 25bd e427 bc3d e4e1 e8bd
00000220: 005b 5f3d 7535 b83c c393 aebd ab0c 0cbd
00000230: 28ae 0dbd e59c 92bd e844 01be b83a 823d
00000240: 2173 fcbc b8f8 acbd 5308 f13d b31e ce3d
00000250: 3eab a0bc ce19 6abd b28a fb3c f870 08bd
00000260: 03fc 6bbd cc11 a9bc d63e 633d 2b35 5ebd
00000270: f623 673d a2b4 063e 4599 cbbd d6d5 39bc
00000280: e389 81bd f954 2ebe 5dc2 233e a552 4dbc
00000290: 0a13 b1bc e83d e8bc 68c0 c7bd 13db 853c
000002a0: cc82 9b3d 4528 18be 2d65 5f3e 60c8 763c
000002b0: e053 6e3d 4f90 c4bd f277 e43d f5fc adbb
000002c0: 0927 fe3d 46f5 9a3d bea9 cb3d 3349 bf3d
000002d0: edf3 24bd 1c7d dd3d 7db6 adbd c636 e83c
000002e0: 3ac8 03be a4f4 7a3d 286c 2abd fe63 24bb
000002f0: 02c0 ca3c 5976 9f3c 60ae ef3b 4430 cc3c
00000300: 7a81 083e b394 8cbd 46f6 8ebd fc00 923d
00000310: 7b31 16be 5201 88bb 4f1d b13c 2049 0439
00000320: acd9 a33d a432 893d 52d4 83bb 7817 323a
00000330: a993 893d b0ea ac3d 8464 ecbc 708f 213e
00000340: f16e 8a3d 2999 8bbd 74fa 473d ba28 f2bc
00000350: 500a fd3d d791 193e c9ef 45bd a924 f93d
00000360: 3dfc 673b 9df5 8c3b 31e6 5bbd dd03 a8bd
00000370: d670 a6bd 8080 5ebd 9510 163d 125c c4bb
00000380: be16 173e e5e9 8e3c 3135 a83d b391 c9bc
00000390: 89eb 68be 2bb2 213b 8c14 1ebe e88d 883d
000003a0: 499e 313d dee5 943d 85af ba3d 6b82 c63b
000003b0: 10f8 a43d 61d0 1abd e26b d7bd fff2 823d
000003c0: 12ad 933d 31fe a2bd 82c2 0d3c dc1c 213d
000003d0: 8674 a6bd 9cc5 ebbd 1a3a e1bd 92ae a53d
000003e0: 36c7 31bd d24e a73b cec3 be3c 4c19 9dbc
000003f0: fff1 d73c 244f 17bd 5a55 913c 7060 17bc

fc2.bias f4 [84]
0.034069616 0.030516699 0.0043695257 0.088940345 0.09056112 -0.022096338 0.09178822 0.04291375
0.020744534 0.059469573 -0.048843265 -0.048538256 -0.05981013 0.08747403 -0.110561155 -0.10423932
0.001863586 0.0079077715 0.14710526 -0.09094901 -0.077564344 -0.08299716 -0.0007238544 -0.053898245
-0.05283528 0.010436574 0.07753919 -0.04767778 -0.08799774 -0.044717625 0.02703431 0.10018368
0.111223474 0.040601455 0.061868414 0.008626674 -0.034347154 -0.04918394 -0.09460555 0.078760795
0.02315767 0.035339486 -0.09271203 -0.03343478 0.0002793592 0.012156247 0.17122602 -0.013308251
0.014964364 0.060133204 -0.029077778 0.10202346 -0.084211856 -0.025536923 0.043543823 -0.074867725
0.09225451 0.13388596 -0.025513526 0.083252646 0.012595863 0.109326296 -0.054541998 -0.09672177
0.07398595 -0.076955624 0.057618733 -0.040283054 -0.08434644 0.07275468 -0.055750456 0.08841209
0.032876838 0.01882935 0.07160332 0.064754196 -0.05968324 -0.09641719 -0.08406273 -0.072700165
-0.019203432 -0.014675311 0.09152571 -0.05522754
00000000: 958c 0b3d 28fe f93c 3d2e 8f3b 5b26 b63d
00000010: 1c78 b93d 6103 b5bc 76fb bb3d 54c6 2f3d
00000020: 71f0 a93c 5e96 733d e00f 48bd 0dd0 46bd
00000030: 78fb 74bd 9625 b33d e36d e2bd 6d7b d5bd
00000040: 9243 f43a 998f 013c c3a2 163e 7943 babd
00000050: 0eda 9ebd 6afa a9bd 0cc1 3dba 68c4 5cbd
00000060: ce69 58bd 2afe 2a3c decc 9e3d c749 43bd
00000070: 2938 b4bd d429 37bd 0f77 dd3c 1a2d cd3d
00000080: 22c9 e33d b64d 263d bc69 7d3d e556 0d3c
00000090: 9aaf 0cbd 1975 49bd 8ec0 c1bd 574d a13d
000000a0: 27b5 bd3c 23c0 103d cedf bdbd e8f2 08bd
000000b0: f576 9239 ff2a 473c e055 2f3e da0a 5abc
000000c0: 172d 753c 3c4e 763d 8534 eebc adf1 d03d
000000d0: 4477 acbd cf32 d1bc 025b 323d 4054 99bd
000000e0: efef bc3d 6719 093e be01 d1bc 5d80 aa3d
000000f0: e15e 4e3c 77e6 df3d 6e67 5fbd 1016 c6bd
00000100: f285 973d e99a 9dbd 9f01 6c3d d8ff 24bd
00000110: d4bd acbd 6800 953d 975a 64bd 6611 b53d
00000120: dda9 063d 0240 9a3c c3a4 923d d99d 843d
00000130: 6a76 74bd 6076 c5bd 1529 acbd d3e3 94bd
00000140: 8450 9dbc b770 70bc d571 bb3d 4636 62bd

fc3.weight f4 [10, 84]
0.048565585 -0.18191142 0.012246415 0.099676035 0.116712116 -0.060658924 -0.22691594 -0.34462258
-0.07828138 -0.08755736 -0.03750312 0.01790627 0.1046137 0.010209036 0.032217678 -0.027787039
0.076329485 -0.069398224 0.106456436 -0.10109415 -0.02884725 0.054216042 -0.016966997 -0.12884256
0.04707567 -0.13007262 -0.22125009 -0.071879834 0.041082963 -0.25807464 0.021817934 -0.11549867
-0.18872955 0.14301096 -0.103396915 0.095939554 -0.046891473 -0.037232965 0.1365937 -0.081262775
-0.2158983 -0.10950794 -0.058451124 0.026231378 0.12742887 -0.0706757 0.06955026 -0.16114543
0.16078049 -0.058282413 0.115456626 -0.14779758 0.078825876 -0.07798895 -0.07525228 0.07204164
-0.11743251 -0.13187104 -0.017306834 -0.011313873 0.13592702 0.07475908 -0.031108392 -0.12142749
-0.16697195 0.09898672 -0.19449091 0.08270596 0.009604392 0.055577394 -0.029360032 -0.04447034
0.13245453 -0.06408795 -0.24409093 -0.105702095 -0.07102664 0.1539083 -0.03929399 0.009217418
0.03857876 0.09441226 0.073823676 -0.15025285 -0.036932454 0.13611774 -0.082214855 -0.04044063
-0.07291057 0.08995407 -0.2534105 0.21221353 -0.007164491 -0.05438308 0.08960207 -0.18140729
-0.08436504 0.026025329 0.013976149 0.055107743 -0.07048783 0.082790695 -0.15952092 -0.08773393
-0.19289789 0.029858682 0.07666741 -0.12871295 -0.071786225 0.066894844 0.08161599 -0.03034987
0.023865279 0.0628532 -0.16777556 -0.16179132 -0.043249805 -0.14904273 0.006512444 0.03782668
-0.07469288 -0.09155254 0.109884664 -0.13934837 -0.005858521 -0.07757078 -0.06382854 0.15668064
-0.052207746 -0.0649852 -0.17701437 0.079779334 -0.005905476 -0.043232415 -0.16445172 0.13041955
0.17029116 -0.15654118 -0.0437124 0.12191784 -0.24503928 0.102069736 0.17725517 0.14116992
-0.08097895 0.10217862 0.050173756 -0.17457259 -0.0051279413 0.019272918 0.015410015 -0.07147693
-0.08375019 -0.107303284 0.08682712 0.16490269 -0.059769046 0.011076774 0.02953964 0.00453285
-0.12853956 -0.07312856 -0.04071724 -0.103128396 0.06209966 -0.023470176 -0.12497995 0.01343291
-0.13126613 -0.12654263 -0.19460355 0.17201447 -0.014337778 -0.022497047 -0.17959468 0.020867737
0.04663048 0.074010566 -0.06920711 -0.050734527 -0.018899856 0.039937098 0.10372854 -0.026808253
-0.05062951 0.022091003 -0.18125401 -0.12619486 -0.0311518 0.128519 -0.15227889 0.065359645
0.07677075 -0.14419016 -0.007344166 0.14779642 0.016025763 0.07005257 -0.10919974 -0.013565058
-0.0043967995 -0.025252186 -0.08862276 0.070757136 -0.03156729 0.091934554 0.005359217 0.033891026
0.08994346 -0.13368675 -0.045791328 -0.29728767 0.064425014 0.047643416 -0.20015405 0.061555624
-0.064567834 -0.047946904 -0.12433709 -0.12405041 -0.07800022 0.03577983 -0.04181461 -0.113722526
-0.017838081 -0.1917429 0.029741932 0.096018754 0.082026735 0.13271146 -0.09771595 0.0734901
0.060554706 -0.094100975 0.16047308 0.07818676 0.031617355 -0.1489245 -0.06155281 -0.18551107
0.08172072 0.13560376 -0.07357608 -0.008969109 -0.016780997 0.10478941 -0.038917482 -0.05704143
0.12827803 -0.0044474215 -0.17345954 -0.086826295 -0.03246613 0.022574672 -0.051204175 -0.16749993
00000000: b5ec 463d fd46 3abe 30a5 483c f322 cc3d
00000010: c306 ef3d 7e75 78bd a75c 68be 5f72 b0be
00000020: fd51 a0bd 4651 b3bd df9c 19bd 2cb0 923c
00000030: b53f d63d cd43 273c aff6 033d a5a1 e3bc
00000040: a252 9c3d a820 8ebd d505 da3d 730a cfbd
00000050: 1151 ecbc a411 5e3d 5ffe 8abc 4eef 03be
00000060: 6bd2 403d c231 05be 628f 62be bc35 93bd
00000070: 9c46 283d 5c22 84be 86bb b23c 918a ecbd
00000080: 5242 41be 7771 123e c3c1 d3bd f57b c43d
00000090: 4611 40bd 9881 18bd 38df 0b3e 196d a6bd
000000a0: 7214 5dbe b345 e0bd 726a 6fbd 30e3 d63c
000000b0: b77c 023e 6cbe 90bd 5e70 8e3d 4f03 25be
000000c0: a4a3 243e 8ab9 6ebd 8674 ec3d 4058 17be
000000d0: 766f a13d acb8 9fbd de1d 9abd 918a 933d
000000e0: 7580 f0bd 3409 07be 10c7 8dbc d35d 39bc
000000f0: 7430 0b3e 4a1b 993d 07d7 febc faae f8bd
00000100: b2fa 2abe 8db9 ca3d a028 47be be61 a93d
00000110: bd5b 1d3c 1fa5 633d 7384 f0bc 8826 36bd
00000120: 29a2 073e 8b40 83bd f9f2 79be 577a d8bd
00000130: 6a76 91bd 239a 1d3e bcf2 20bd a704 173c
00000140: c304 1e3d 375b c13d de30 973d e2db 19be
00000150: 7c46 17bd 7362 0b3e 4360 a8bd 13a5 25bd
00000160: 2352 95bd d739 b83d 05bf 81be 814e 593e
00000170: 1bc4 eabb cbc0 5ebd 4a81 b73d d5c2 39be
00000180: 94c7 acbd 1233 d53c 38fc 643c a8b8 613d
00000190: ec5b 90bd 2b8e a93d 7459 23be d9ad b3bd
000001a0: 0687 45be 329a f43c ce03 9d3d 54cd 03be
000001b0: a804 93bd 2a00 893d 4926 a73d 4aa0 f8bc
000001c0: 1e81 c33c 2eb9 803d 5bcd 2bbe a0ac 25be
000001d0: b526 31bd a89e 18be 5766 d53b 26f0 1a3d
000001e0: 95f8 98bd e67f bbbd 360b e13d 57b1 0ebe
000001f0: d6f8 bfbb 6edd 9ebd 8ab8 82bd e470 203e
00000200: cad7 55bd f616 85bd 4143 35be 5963 a33d
00000210: b982 c1bb 7914 31bd 0866 28be b48c 053e
00000220: ce60 2e3e 554c 20be c60b 33bd 0fb0 f93d
00000230: 94eb 7abe f009 d13d 6182 353e d98e 103e
00000240: 4bd8 a5bd 0643 d13d ff82 4d3d 28c3 32be
00000250: 4a08 a8bb 3de2 9d3c 4a7a 7c3c 7f62 92bd
00000260: 3885 abbd d3c1 dbbd 6bd2 b13d 40dc 283e
00000270: 63d0 74bd 5c7b 353c 1dfd f13c 4d88 943b
00000280: e09f 03be 6dc4 95bd 1fc7 26bd fb34 d3bd
00000290: 375c 7e3d 8744 c0bc 7df5 ffbd b515 5c3c
000002a0: a16a 06be 6494 01be 2746 47be 9024 303e
000002b0: 00e9 6abc ba4b b8bc abe7 37be d1f2 aa3c
000002c0: 9aff 3e3d da92 973d 75bc 8dbd 02cf 4fbd
000002d0: dfd3 9abc 1595 233d a16f d43d fb9c dbbc
000002e0: e460 4fbd 31f8 b43c a79a 39be 3a39 01be
000002f0: 0f32 ffbc 7c9a 033e ffee 1bbe 47db 853d
00000300: fc39 9d3d 96a6 13be 54a7 f0bb f257 173e
00000310: 7648 833c b977 8f3d 1da4 dfbd fa3f 5ebc
00000320: 0713 90bb acdd cebc d97f b5bd 1ee9 903d
00000330: b44c 01bd 2f48 bc3d 5f9c af3b 51d1 0a3d
00000340: 4734 b83d 2ee5 08be b08f 3bbd 1736 98be
00000350: 43f1 833d be25 433d 2ff5 4cbe c021 7c3d
00000360: 243c 84bd f963 44bd 72a4 febd 240e febd
00000370: 94be 9fbd df8d 123d cc45 2bbd 5be7 e8bd
00000380: 2b21 92bc 4058 44be 5aa5 f33c 7ba5 c43d
00000390: a2fd a73d 83e5 073e 4d1f c8bd fa81 963d
000003a0: 3608 783d 03b8 c0bd 0e53 243e 6120 a03d
000003b0: 3381 013d aa7f 18be cd1e 7cbd 9df6 3dbe
000003c0: 315d a73d b6db 0a3e 0eaf 96bd 2bf3 12bc
000003d0: 4d78 89bc d59b d63d f067 1fbd 46a4 69bd
000003e0: 515b 033e adbb 91bb 619f 31be fcd1 b1bd
000003f0: 34fb 04bd 85ee b83c 78bb 51bd 1a85 2bbe

fc3.bias f4 [10]
0.08071086 -0.062246814 0.043719474 0.06945688 -0.1150446 0.026710939 -0.13182238 -0.017886115
0.037785877 0.121565245
00000000: bc4b a53d 84f6 7ebd 3113 333d 693f 8e3d
00000010: 819c ebbd e6d0 da3c 72fc 06be e785 92bc
00000020: 5dc5 1a3d 33f7 f83d
