ai_scripts/export/weights/lenet_weights.pth (torch, 181861 bytes, 10 tensors)

conv1.weight f4 [6, 1, 5, 5]
00000000: 0802 af3d 3db3 143e b3cd 14be 90d1 26be
00000010: 04f4 493d 95ca 243e 2a1d 8c3e b414 0a3e
00000020: d896 af3d 342c 3dbe 53c4 bc3d f726 acbd
00000030: 3b51 903d b59a 6d3e f0fe 4bbe f7cf 8cbe
00000040: 59ac f0bc bc50 653e 5eee 3a3d 7f87 08bd
00000050: 5057 08bd 5955 c6bd 3cae 193d b6af 11bd
00000060: 3690 023e b224 80be b607 5cbe 89a8 b1be
00000070: 20a1 febc 26aa 1c3e 8f6f 78be be19 09be
00000080: b07e 0bbe bf44 bcbd bcab 3f3e a56d ccbc
00000090: 0a2f 16be e7f5 c33d 7a51 a73e 2a84 863e
000000a0: c8ba 743d 3697 8bbd eb1c a23e e638 473e
000000b0: 7aa5 04bd 6906 973e 77f0 af3e f1e2 743e
000000c0: 920c d13d 59cf 07bc fc33 8e3c 0791 403e
000000d0: 4fdd c23e 9517 753d 6223 463e 34b6 28be
000000e0: 699d 5ebd a0b4 f93d 3a45 1d3e 7f88 1c3e
000000f0: c575 a7bb 8619 60be 786f 5fbe 573d df3d
00000100: 4620 003e 0fdc 8ebe 6cc1 eabd 4c28 25bc
00000110: 0535 263e 6d0d c03c 3157 90bd c662 c83d
00000120: 517d 5b3d cfe3 8c3e 95da 87be c1ce 893e
00000130: e701 543e 0de3 a03e 6d8e ac3c 92ea 523e
00000140: 8e1a 553e a72e 4a3e 9366 7c3e 51f0 a03e
00000150: dc0a 9337 23a3 15be 98de 28be ad02 99bd
00000160: e38d 04be 1cdd c8bd 1bd9 adbe 2495 6cbe
00000170: 8631 dbbe 11f3 cfbe df61 aebe cc72 77be
00000180: 5091 a0be 1dd9 7bbe 20b6 89bd 00be 733c
00000190: 7542 143e 7a9d 933e 12ea 9b3e 710d 83bd
000001a0: b965 67be fed9 02be 2b27 473e fd5d cf3d
000001b0: 91cf b93e d3c7 123e 9e74 bebe 577b 23be
000001c0: be72 673e 5a8b da3d a463 4a3e aa6d 8fbc
000001d0: 5467 00be d910 1bbe c3d7 1b3e 8265 533d
000001e0: e414 80be 4445 6fbe 3e00 fabd f582 613e
000001f0: 13f2 ad3d c42f 583d 82a9 53be 651b 5a3e
00000200: 3722 cf3d 74d0 37be 3245 bebe 0974 9ebe
00000210: c946 333d 46b0 853d 669c 543e 3e23 18be
00000220: 1198 41be 93a0 8b3e 45cc 093e 34f9 dfbc
00000230: dcf7 253e 64fa 643e decb f8bc c684 5f3e
00000240: fe5a 5abd 2f46 e1bd b721 173d 97b3 51be
00000250: 3c9f 953d c833 133d
0.08545309 0.14521499 -0.14531593 -0.16290879 0.049304977 0.16092904 0.27366 0.1348446
0.08573693 -0.18473893 0.092171334 -0.084058695 0.070467435 0.23203547 -0.1992147 -0.27502415
-0.029379057 0.22394079 0.04563748 -0.033332344 -0.033286393 -0.096842475 0.03751968 -0.03556796
0.12750325 -0.25027996 -0.21487316 -0.34698895 -0.03108269 0.15299281 -0.24261306 -0.13388726
-0.13622546 -0.091928 0.18717855 -0.024954626 -0.14666381 0.095683865 0.3267935 0.26272708
0.05974844 -0.068159506 0.31662688 0.19455299 -0.032384373 0.29497078 0.34363148 0.23914696
0.10207476 -0.008289182 0.017358772 0.18805324 0.3805947 0.059836943 0.19349435 -0.16475755
-0.054349337 0.121926546 0.15358439 0.15286444 -0.005110475 -0.21884736 -0.21819866 0.109003715
0.12512311 -0.27902266 -0.114626735 -0.010080408 0.16231163 0.023443902 -0.070478804 0.097844645
0.053586308 0.27517554 -0.26533952 0.26915553 0.2070385 0.31423226 0.021064008 0.20597294
0.20810911 0.19744359 0.24648504 0.31433347 1.7528822e-05 -0.14613013 -0.16491163 -0.074712135
-0.1294475 -0.09807798 -0.339547 -0.23103768 -0.4281122 -0.40615132 -0.34059045 -0.24164885
-0.31360865 -0.24594541 -0.06724191 0.0148768425 0.14478476 0.28831083 0.3045202 -0.06399048
-0.22597398 -0.1277847 0.19448535 0.10125349 0.36291173 0.1433404 -0.37198347 -0.15965019
0.22602364 0.106711105 0.19764572 -0.017508347 -0.12539417 -0.15143146 0.15219025 0.051610477
-0.25015938 -0.23366266 -0.122070774 0.22022612 0.084934376 0.052779928 -0.20670131 0.21299513
0.10113948 -0.17950612 -0.37162167 -0.30947903 0.043768678 0.06527762 0.20762786 -0.14857194
-0.18905665 0.27270946 0.13456829 -0.027340509 0.16207832 0.22361141 -0.030370649 0.21827993
-0.053309433 -0.109997146 0.036897387 -0.20478664 0.07305762 0.035938054

conv1.bias f4 [6]
00000000: d374 eb3b ab94 ffbd bcd0 6dbe 2ac5 dc3d
00000010: fe48 53be ac13 8f3c
0.0071855574 -0.12479528 -0.23224157 0.107797936 -0.20633313 0.017465435

conv2.weight f4 [16, 6, 5, 5]
00000000: 726c 1f3d 97de 6dbd 5602 053d 1539 b93d
00000010: 1ed8 cf3d 56c3 e33c 7fee e9bc 10dc bcbc
00000020: 40af d3bd 3b12 813d e6b1 913d 7222 e13c
00000030: 4ee4 093e 1942 ce3d 87c5 de3d faed 1bbd
00000040: bd55 d03d a4e2 893d 0e4b 50bd ee20 87bd
00000050: 98a1 b03d 85a6 963d aceb 79bd 9aad 583d
00000060: 4dbf 08bd 2c0d 033d 4ecd 893d e8c0 54bd
00000070: 4cb6 903d c286 c23d 7cc9 34bd 9ca1 263e
00000080: d3dd 113e 2bb8 c53d e60e a7bd c66c 133e
00000090: 717e 0d3e 1a0c dfbd 69cf 92be 117d 19be
000000a0: b95e 5d3d ffdd 16be 2225 4fbe 82ce 1abe
000000b0: 409b 023e 649a 5ebe 2487 f5bd 76f4 b4bd
000000c0: 2843 17be 2623 063b a309 21be 6db9 ff39
000000d0: 7d99 4a3e 7368 133e 6cd4 ebbd 6f04 113e
000000e0: bdd7 433e e609 023e 7e20 44bd 0069 533d
000000f0: ad47 f43c a9ac 71be 4be3 2f3c f3f1 acbc
00000100: c8c9 1b3c 1c0d 19be e293 2fbe 5374 b0bc
00000110: 879b 05be 8bfc d2bd be8c 55bd 09c4 44bc
00000120: 6e53 1cbe 592e 193d be7a 27be b07f 253d
00000130: 745c 513d 1acf 2dbd 8b33 42be 3103 87be
00000140: 9534 083d 624e 7bbe b74f 90be 218f e3bd
00000150: 7800 2cbc e13b c4bd 3d07 31be 5734 1abe
00000160: d57e 92bd afed 203d ec51 37bd 9929 d03c
00000170: e069 4cbd ecdd a5bd 16c5 893d 39b5 f33d
00000180: f345 6cbd f371 143c b459 c73c 3a57 363e
00000190: 4a12 cb3b e517 9a3d 0af8 eb3d 73f8 ddbc
000001a0: 693f 2cbc 9c4c 353d 5272 023c 0303 1fbe
000001b0: 5c10 69be df0f 28bb a8ed 78bd 7889 f9bd
000001c0: 2d75 ec3c b4df d3bd 4455 aa3d 59c8 59be
000001d0: 8c20 bebc f42f 8e3d d8e7 72bc 159f 11be
000001e0: 8960 1a3e ad96 86bd d60a 253d 2ff4 073e
000001f0: 6bd0 c5bc 19e4 7c3d 995a 7f3d 9451 a7bc
00000200: 52f4 483c 62f6 dd3c 038d 21bc 3676 6cbd
00000210: f733 2c3e 2e7a 4b3d 4c1f 853d a85a 543e
00000220: 5250 ff3d 5ea4 523d d0a5 24bd 07b3 163d
00000230: 2741 c33d 70fa 11be 98c7 b43d 4577 f83d
00000240: 9696 cb3d 112e 2abe c542 973c ffbb d13d
00000250: d705 8dbd 7512 93bd b774 10bd 9461 883c
00000260: 8f2c f1bd 8a93 d33c edea d93b 2864 00be
00000270: 20a8 80bd c8b3 e53d 38e3 e03d ce1f 68bd
00000280: c403 adbc 45a3 09be 77e1 cb3c 3369 553b
00000290: ae93 0ebe 2ab2 0ebd 6f4c c93d 83f5 a03c
000002a0: 5aef 11be 9e7b b9bd 1fd6 bb3b b186 883d
000002b0: aa2e ea3d ff5e 313d 08ae 78bd ab90 de3b
000002c0: 253c 513d 8d14 a23d 1d88 613e d812 943d
000002d0: 520f c4bc 9979 a8bd dc6a 12be 90c6 1fbe
000002e0: d3fd e7bd 4866 e6bc 221e 1dbe 60eb d8bd
000002f0: d5a6 58bd 0870 903d 416c 533d 1912 4fbd
00000300: 6618 063e b872 c53d e919 db3d a578 333d
00000310: 8113 cbbb 3d37 1dbe 37c9 d8bd 622d bfbd
00000320: 5cfe b8bc 95ff ec3c 7f53 2abe 79fa 2dbe
00000330: b83a 48be 6abd 4dbd cd06 af3b 0095 fe3d
00000340: ccab 143e 2049 ac3d 0351 92bc 6797 5ebd
00000350: 9116 bf3d 266e 0ebd 3b1e b2bd 4a40 a9bc
00000360: 39e0 aabd 3e46 5ebd b756 43bd dff4 9ebd
00000370: dfa0 8a3d 8999 c93d ce7a 243c 4f82 35bc
00000380: b2ff b03c 5f72 803c 942e 9fba 82de cfbd
00000390: f603 fa3d 1a6d 303e 1b4a 903d e65e 343e
000003a0: 5393 9e3e d2e0 963e f2b2 993d 4be2 3abe
000003b0: 86ad 2b3d f15a 153e ee82 6bbd 9aa5 43be
000003c0: f911 69be 3923 afbe ffcf 30be 8e88 d93d
000003d0: fa68 ae3d 7de9 d9bd 8568 34bd 067a 8f3d
000003e0: 8859 073e 70c2 03bd a277 80bd 2da5 59bd
000003f0: 7414 00be b544 d9bc ae2f 8d3c e4ce e5bd
0.03892178 -0.058073606 0.03247293 0.09044091 0.10148643 0.027803104 -0.028556107 -0.023054153
-0.10336161 0.06302305 0.071140096 0.027482245 0.13465998 0.10071201 0.10877519 -0.03806875
0.10172603 0.067326814 -0.050852828 -0.06598078 0.086245716 0.0735598 -0.06101577 0.052899934
-0.033385564 0.031994984 0.06728612 -0.051941782 0.0706602 0.09498359 -0.044137463 0.16272587
0.14244775 0.09654268 -0.081571385 0.14396963 0.13817765 -0.1089098 -0.28673866 -0.14989115
0.054045413 -0.14733122 -0.20229009 -0.15117839 0.12754536 -0.21738583 -0.11988667 -0.0883569
-0.14771712 0.0020467727 -0.15726332 0.00048775543 0.19785114 0.14395313 -0.11515126 0.14161848
0.19125266 0.12699088 -0.04788255 0.051613808 0.029819334 -0.23601021 0.010735343 -0.021111464
0.009508558 -0.14946407 -0.17146257 -0.021539843 -0.1304761 -0.10302075 -0.052136175 -0.012009629
-0.15266201 0.037397716 -0.16355416 0.040404975 0.05111356 -0.042433836 -0.18964975 -0.26369622
0.03325327 -0.2454162 -0.28185818 -0.11111284 -0.010498159 -0.095817335 -0.17287917 -0.15059029
-0.071530975 0.039289173 -0.04475586 0.02541046 -0.049905658 -0.08098969 0.06727044 0.118998
-0.057683896 0.009060371 0.024334766 0.17806712 0.0061972486 0.07524089 0.11521919 -0.027096009
-0.010513165 0.044262514 0.007961826 -0.15528493 -0.22760147 -0.0025644226 -0.06077352 -0.12184423
0.028864468 -0.10345402 0.083170444 -0.21267833 -0.023208879 0.0694274 -0.014825784 -0.14220841
0.15075888 -0.06571708 0.040293537 0.13276742 -0.024147233 0.06174097 0.06234226 -0.020424642
0.012265282 0.027095024 -0.00986028 -0.057729922 0.16816698 0.049677067 0.0650011 0.20737708
0.12466492 0.051426284 -0.040197194 0.036791828 0.09533911 -0.1425569 0.08827132 0.12132124
0.09940831 -0.16619135 0.018464455 0.102409355 -0.068858795 -0.07181255 -0.035267558 0.016648091
-0.11776077 0.025827188 0.00665032 -0.12538207 -0.06282067 0.11215931 0.109808385 -0.056670956
-0.02111996 -0.13441189 0.024887783 0.0032563924 -0.13923523 -0.03483788 0.09829032 0.01964832
-0.14251462 -0.09056781 0.0057323123 0.06666315 0.11434682 0.043303486 -0.060712844 0.006792148
0.05108275 0.07914076 0.2202458 0.07230157 -0.023933087 -0.08226318 -0.14298576 -0.1560309
-0.1132771 -0.028124943 -0.15343526 -0.10591769 -0.05289348 0.07052618 0.05161691 -0.05055437
0.13095245 0.096410215 0.10698301 0.043816227 -0.0061973934 -0.15353103 -0.10585254 -0.09334828
-0.022582226 0.028930465 -0.16633414 -0.16990079 -0.1955365 -0.050229467 0.005341387 0.12430763
0.1451866 0.08412385 -0.017860895 -0.054343607 0.09330476 -0.034773014 -0.08697172 -0.020660538
-0.08343548 -0.054266207 -0.04769012 -0.07761549 0.06768965 0.09843738 0.010039045 -0.011078431
0.0216063 0.015679536 -0.0012144619 -0.10149862 0.12207787 0.17229119 0.070453845 0.17614326
0.30971774 0.294684 0.07504834 -0.18250386 0.04191353 0.14585473 -0.05749791 -0.1910614
-0.22760762 -0.3420656 -0.17266844 0.10621749 0.085161164 -0.106402375 -0.04404499 0.07005696
0.13217747 -0.032167852 -0.06272818 -0.05313604 -0.12507802 -0.02652202 0.01723465 -0.11221102

conv2.bias f4 [16]
00000000: cc4a bc3c dbb4 debd a466 79bb 5602 1bbc
00000010: 131d 01be f07a 893d ad7e 3abd 1546 253d
00000020: 18e1 953b 1df2 d43b f8ef 773d 9ed8 ab3d
00000030: 1900 533d c915 9cbd 197b afbd 22c8 bebd
0.022984885 -0.10874339 -0.0038055563 -0.009461006 -0.12608747 0.067129016 -0.045530964 0.04035004
0.0045739524 0.0064985887 0.060531586 0.08390926 0.051513765 -0.07621343 -0.08568401 -0.09315516

fc1.weight f4 [120, 256]
00000000: 01e4 f9bc 77d6 a13d 34d7 813d 5572 69bd
00000010: 74f0 ddbd 179a 64bd 2fb7 77bd 3f23 1c3d
00000020: 7307 94bc d0f5 a33d 4acf f43b 1cc6 55bc
00000030: ca44 9b3d a6c1 363d 3c74 1fbd 90ca 743b
00000040: 43a3 193e f030 9f3d 0948 ad3d c819 f33d
00000050: 7270 00bc 0f4f 603c 121e df3c 800d b2bc
00000060: b867 4bbd ecbf 7fbd 85de 183d 73e3 183e
00000070: 9af2 d5bd cc8d 2f3c eca5 64bc be41 8b3d
00000080: 5586 8cbd 3acf b93c 4735 8bbd 269c e43d
00000090: 8812 cf3d eda3 0f3c 6392 eebc a039 113e
000000a0: 8ad4 623b c3e3 143d 348a 4f3c 68c1 9c3d
000000b0: fb02 7f3d 4331 43bd 2ea4 a63d 56e3 323d
000000c0: 4cf1 32bd 787e b6bd 01ca 713c 6002 613d
000000d0: 0b93 ea3c 8714 2e3d 24e6 a73d da39 6a3d
000000e0: bb5c bcbc aa43 413c defd 933d d247 453d
000000f0: 1644 04be 7dca 11be c03e aabd 0fab 06bc
00000100: 033c 9bbc 9b67 98bb 79f0 6f3d a09a 233d
00000110: 6f98 183e 0934 b93d 77ad 863d 70b6 f33d
00000120: d251 cd3c 7337 e5bc 36d2 003d 09fd f73d
00000130: 2f57 2abc 9ef0 0e3d f159 df3d 9677 4b3d
00000140: 3fc2 af3c 9b1f e3bc 89d7 aabb e610 b6bd
00000150: 727a acbd 108c 0d3d 8fc1 83bc f16b 16be
00000160: 0cb9 af3d 3967 8fbc f72c b3bd 24d4 27be
00000170: 9ef3 ce3d ea40 b0bd 0d8f 87bc ba3a cebc
00000180: 36a8 f83c b343 3cbd a0d4 8fbd c7e6 f6bc
00000190: aa17 793d 3c4a 483d a554 923d 46bf 35bd
000001a0: 0004 e33c e213 bb3d 786e e03d 4cc0 043e
000001b0: eb7b 55bd 447f 8bbd 0eae d93d 94fd 263e
000001c0: ed9e 4ebc 82f1 1ebd 7cd0 0bbc b166 b9bd
000001d0: 8e78 acbd ee57 0dbd 9c2e d33d d07b c53d
000001e0: fcd1 92bd b6b3 1e3d 25ef c9bd 9f30 2ebd
000001f0: 47d7 e63d 4b08 8ebb 474a 0ebe 96ae cfbd
00000200: b4b7 31bd 5fc0 9a3d f1ed b43c 5672 bdbd
00000210: 4d39 01be 1107 003d 8767 0e3d 0b7d e8bb
00000220: fd7c c6b9 ebaf 26bc 73c5 9fbd cfee 823d
00000230: 6f1d bc3c 8246 18be a6d1 24be 2b68 983d
00000240: 7ec4 fe3c 3902 933c bda4 563c ce00 53bc
00000250: e04b 223c 1ca1 783d f26b 45bd 1bf5 84bd
00000260: da0c 233d 2c28 7dbc 797a 583d 0035 beb9
00000270: 6620 9dbd 2f78 b43c ef7a 1fbd 858e abba
00000280: 0761 283d 988e dcbc a522 16bc a9a1 2ebe
00000290: 5b92 88bd 2868 f9bd a451 173d bc81 483d
000002a0: 921b ff3d a5e9 f63b 26b2 02bd 7d26 15bd
000002b0: 557d ccbd 626e 09be a0e6 b9bd f763 6d3c
000002c0: 04fe 8c3d 7201 663d 35ec 6a3d 8921 3bbd
000002d0: 7342 12bd 9a8b b4bd 8cca e8bd 7d7b 253d
000002e0: 67d4 d3bc 67b7 013d 3d90 e5bd b76b 05bd
000002f0: f11e 5cbc aed8 7a3d e5c0 7d3d dd5b 923d
00000300: f440 0dbd 8d86 9f3d bfb2 1a3d 81b6 cbbc
00000310: b679 e4bd 474d 87bd 61aa 4cbc fe07 e6bd
00000320: 2d7d 65bd 3f29 e0bc 33e8 76bd f1ac de3d
00000330: ee73 1e3b f077 a5bc 92a5 aabd 6e63 993d
00000340: 01af 0a3d 1c28 d83b 9bae 173c 6ab6 a03c
00000350: 6fbe 1a3e 8cd4 7c3d 29b2 813d 3684 cc3d
00000360: 8d7e 583c e7f5 d33b 984d 7c3c 2eb0 863d
00000370: 973d 40be c7c2 1dbd dc50 b73c 2418 f3bc
00000380: 4774 26bd fa89 04be 5a56 3dbd 5bed b0bc
00000390: caae 1dbd d861 c9bd d168 93bd 131f 8d3d
000003a0: 570a 923d 3c92 603c aebc c83d f03a e63d
000003b0: c002 563d a1ab 233d 5eed 223e e8b1 9b3d
000003c0: b1a9 983d d293 89bd e615 53bd 3341 88bd
000003d0: 0a41 d8bc a9db 42bc a0ef 70bd 9d57 cb3b
000003e0: 3233 c8bd 591c 073d 3179 a53d dcb3 3abb
000003f0: 211e b63d 34b7 cc3d 5dc8 ea3c aa39 c03c
-0.030504229 0.07902234 0.06339875 -0.0569938 -0.108368784 -0.055811014 -0.060477432 0.03811955
-0.018069958 0.080058694 0.007471 -0.013047721 0.0758148 0.04461827 -0.03892921 0.0037352182
0.15003686 0.07773006 0.08461005 0.11870152 -0.007839309 0.013690724 0.027236018 -0.021734953
-0.04965946 -0.06243889 0.037321586 0.14930515 -0.10446663 0.010714959 -0.0139555745 0.06799649
-0.06861559 0.022681821 -0.06797271 0.111625955 0.101109564 0.00876711 -0.029122537 0.14182138
0.0034611546 0.036350023 0.012667228 0.07654077 0.0622587 -0.0476544 0.081367835 0.043673836
-0.04368715 -0.08910841 0.014757634 0.054933906 0.028634569 0.042500045 0.08198193 0.057184078
-0.022993436 0.0117959175 0.07226156 0.048164196 -0.12916598 -0.142374 -0.0831275 -0.0082194945
-0.018949514 -0.0046510226 0.058578942 0.039942384 0.14901899 0.09043128 0.065760545 0.119000316
0.025063429 -0.027980542 0.031450473 0.121088095 -0.010396763 0.03489744 0.10905827 0.049674593
0.021454928 -0.027725032 -0.005213682 -0.08889942 -0.08421792 0.034557402 -0.016083507 -0.14689614
0.08580217 -0.017505275 -0.08748811 -0.16389519 0.1010506 -0.086061314 -0.016547704 -0.025174487
0.030353647 -0.045963 -0.07022977 -0.03013934 0.060813583 0.04889892 0.07145051 -0.044371866
0.027711868 0.09134652 0.1095857 0.1296398 -0.05212013 -0.06811383 0.106289014 0.1630767
-0.012611133 -0.03880454 -0.008533593 -0.0905279 -0.084214315 -0.034507684 0.103116244 0.09642756
-0.071689576 0.038745604 -0.09860066 -0.042526837 0.1127153 -0.0043344847 -0.13895522 -0.101407215
-0.043388084 0.07556223 0.022086116 -0.092503235 -0.12619515 0.03125674 0.0347667 -0.0070949844
-0.00037858626 -0.010173778 -0.07801332 0.063932054 0.022963254 -0.14870647 -0.160956 0.074417435
0.031099554 0.017945396 0.0131008 -0.01287861 0.009905785 0.06070052 -0.048198648 -0.06492063
0.039807178 -0.015451472 0.052851174 -0.00036279112 -0.07672195 0.022029964 -0.038935598 -0.0013088739
0.041108157 -0.026923463 -0.009163533 -0.17053856 -0.0666854 -0.12178069 0.036943093 0.04895185
0.124564305 0.007535177 -0.031908177 -0.03641366 -0.09984843 -0.13421014 -0.09077191 0.0144891655
0.06884387 0.056153722 0.05735417 -0.04568628 -0.035707902 -0.088156894 -0.11366758 0.04040097
-0.025858117 0.031669047 -0.11209152 -0.032573428 -0.013435111 0.061241798 0.061951537 0.07146428
-0.034485772 0.077893354 0.03776812 -0.024867298 -0.11156027 -0.06606536 -0.012491793 -0.11231993
-0.05602758 -0.027363418 -0.060280036 0.1087283 0.0024177986 -0.020198792 -0.08332361 0.07489668
0.033858303 0.0065965783 0.009257938 0.019618232 0.15111707 0.061726138 0.063328095 0.09986155
0.013213766 0.006468523 0.015399359 0.06576572 -0.18773495 -0.038515832 0.022377424 -0.029674597
-0.040638234 -0.12943259 -0.04622493 -0.021597555 -0.03849677 -0.09833115 -0.071977265 0.068906926
0.071308784 0.01370674 0.09801613 0.1124171 0.052248716 0.0399586 0.15910861 0.07602292
0.07454241 -0.067176476 -0.051534556 -0.06653061 -0.0263982 -0.011893191 -0.058822274 0.0062055127
-0.0977539 0.03298602 0.08079756 -0.0028488552 0.088924654 0.09995881 0.028659994 0.023464996

fc1.bias f4 [120]
00000000: 8fc1 f73c d4ae 16bd 0f18 96bd 5f06 5d3d
00000010: 1dfe 813d c205 553c 5926 bf3c 4a94 8ebd
00000020: d204 cebc c0ab 97bd 01bb 213d feeb 81bd
00000030: 2ef8 3f3c 0307 94bd 0148 dbbb 84d4 f3bc
00000040: d369 183d 115e 72bd cca9 903c c566 f43c
00000050: 41ba a9bb 82fd d2bb 1967 893c dd77 dabb
00000060: 9411 b83b eb5e c0bc 86fb 2b3c 7d84 e73a
00000070: 03cd a63d e54b 63bd 6033 47bb 2b2d 823c
00000080: 3e72 133c 0e72 c2bc d819 873d 4db3 4cbd
00000090: 1d0b 8ebd daf5 f0bc ad1f 413d 0bb4 67bd
000000a0: 2225 df3c 32f1 d9bc b8cf 493d d756 55bd
000000b0: 4898 b03d a424 a23c f56b 60bc e93f 323c
000000c0: 1d7b 90bd 7dbc 6f3d 18eb d73c 740d aebc
000000d0: 5864 d73c f38b 7c3d cf05 ed3c 159d 623d
000000e0: eb2c 953b c406 c23c 3039 97bd 2018 80bc
000000f0: ec8e 213d 2571 05bd 1b03 463d c80f 9a3c
00000100: f6ac 6f3d 4061 b03c 2034 09bd 57af 24bc
00000110: 3363 2cbd cb77 ddbc b84f 433d b8c0 91bd
00000120: 2c65 02bd 8bb4 7b3d 5a28 27bd 6e1e 183c
00000130: d5b2 853d c22b 373c d51a e13c b490 31ba
00000140: f8d5 8c3d 6188 39bc edf8 98bd cd4a 9a3c
00000150: 85e5 14bd 59cf d73c 07f7 83bd f287 653a
00000160: 75cd fd3c df6c 01bd 492b 28bd dc3b 82bb
00000170: 0159 2dbc 07ef cc3c d3e8 fdbc 3e7f ca3c
00000180: 8cf2 493d a165 d2ba fefa bd3d 0522 4ebd
00000190: 9967 3d3b 9b6b 7dba 957b bdbc 89ac 3abd
000001a0: 2f38 28bd 22b4 0b3d e9fb b0bd 5693 0d3c
000001b0: 7413 a3bd 01e5 e43c 7b4c 4abd b487 fbbc
000001c0: b415 343d 1401 c7bb fbfb 813c 6325 a83d
000001d0: 8c81 0f3d 798b 5fbc 35f5 88bb 8bbb 31bd
0.030243663 -0.036787823 -0.073288076 0.053961154 0.063472964 0.013001861 0.023333715 -0.06961878
-0.025148783 -0.074058056 0.03948498 -0.0634384 0.0117168855 -0.072279 -0.006691933 -0.029764421
0.037210297 -0.05917174 0.01765909 0.02983416 -0.005179674 -0.006438912 0.016772794 -0.006667121
0.00561733 -0.02348276 0.01049698 0.0017663386 0.08144572 -0.0554923 -0.0030395612 0.015890678
0.008999405 -0.023736026 0.06596726 -0.049975682 -0.069357134 -0.029414106 0.04714935 -0.056568187
0.027239386 -0.026604269 0.04927036 -0.05208477 0.08622795 0.019792862 -0.013697614 0.010879495
-0.07054732 0.058529366 0.026357219 -0.02124665 0.026292965 0.061656903 0.028933434 0.055325586
0.004552474 0.023684867 -0.073839545 -0.015636504 0.03944294 -0.032578606 0.048342805 0.018806353
0.058514558 0.021530747 -0.033496976 -0.01005157 -0.04208679 -0.02703466 0.047683448 -0.07116836
-0.031834766 0.061451476 -0.040809967 0.009284599 0.0652825 0.011179866 0.027478615 -0.00067735766
0.06876749 -0.011324019 -0.07469354 0.018834496 -0.0363517 0.026343988 -0.06443601 0.0008755914
0.030981759 -0.03159797 -0.041056905 -0.003974421 -0.010580302 0.02501632 -0.030994808 0.024718877
0.049303576 -0.0016052016 0.092763886 -0.050325412 0.002890086 -0.00096672185 -0.023130218 -0.0455747
-0.041069206 0.034107335 -0.08641798 0.008641085 -0.07962695 0.027941229 -0.049389344 -0.030704357
0.04396601 -0.0060731266 0.015867224 0.08210256 0.035035655 -0.013644093 -0.0041796216 -0.043391746

fc2.weight f4 [84, 120]
00000000: 863b f9bd 730d f5ba 1d42 c83d 2735 383d
00000010: a491 abbd 2838 08be c8c6 a83d 9da4 34bd
00000020: e1d2 c7bd 2852 76bd 7e37 223e 0c77 c7bd
00000030: df16 e63d 5f45 8d3c a3d6 c63d 11ac a53d
00000040: 8986 e4bc 3228 64bd 493a 00bd 96ad 2cbd
00000050: 80f0 f13b f72d 2d3d 7988 433c e77c 12be
00000060: ba36 c63d 3f98 bf3d e0ea 0c3d e251 60bb
00000070: 0997 863d 823f 2cbc b6a9 f1bd d74c 2d3e
00000080: 628d 8bbc 479b 8d3c 7c03 53bd 3f23 b13d
00000090: 5291 d53c 389e 853e 925e ec3d e929 663d
000000a0: 1c5d de3d da7f 583d 50cf c83d d0a9 fa3d
000000b0: 41d0 acbc bf9b 413d f649 89b8 cb3b 653d
000000c0: 70e0 89bc 4aeb 07bd 5b5d 9dbd 3240 e4bb
000000d0: 53c2 093d 762b 4abd 63a9 ac3c 7027 143e
000000e0: aea3 ed3d bd22 933d 8951 57bd a304 d7bd
000000f0: 7e38 abbc 0fab abbc 362a aabd b1ff 1abe
00000100: a40d 1abd 6c91 cdbd 7255 11bd 2b20 963d
00000110: 89e6 6b3d 77cf 27bd e6b3 d93c 769c 0e3e
00000120: e032 cb3d bbbc 153e 0316 ce3d 5db8 7dbd
00000130: e5f7 e03d b5d0 0d3d f54f de3d effe 7cbb
00000140: 8640 3a3d 35cd cd3c e59c 363d 23cb 203d
00000150: 85b1 71bd 1f59 143d f00f 20be 9455 41bd
00000160: 5e94 73bd a373 aabc cdf9 9c3d 3e1b e23c
00000170: 5581 a7bd 2211 863e 9424 e6bc 3762 bb3d
00000180: 8eb6 c0bd bcd8 ad3d 6882 0c3e 0c36 0e3e
00000190: a5bc d4bd 00b4 153d deb6 25bd 8a10 053e
000001a0: 48c3 d73d e305 0f3e 1d5e ca3c 0cb5 d33b
000001b0: b785 a13d 853e 6bbc 7529 023e cc21 83bd
000001c0: da32 c0bd 6718 a73d 2662 c4bc 8cf5 733d
000001d0: ce62 09bd fae5 903d 4e27 4fbd 40dc 7dbd
000001e0: 4ce5 f93d d538 5d3d d7a7 6fbc 06d9 0fbd
000001f0: a320 d6bd cbd9 86bd c253 133d 515a 0ebd
00000200: ef9d 27be bd2c efbc d1b0 23be 612a dcbd
00000210: 2726 c2bd 0c57 973d b056 4d3e 64b5 863c
00000220: 3947 40bd 5b84 6c3d 23b7 133e eaa6 723d
00000230: d2fe 18be 1ee1 8f3d 6ec0 cc3d 620e bb3d
00000240: 2a1c 2e3d e5bd 413d 3064 ea3d 4973 f83c
00000250: ae2c 9c3d ac14 9a3d 2a33 0a3e 3bc6 c4bc
00000260: ce9c d53d 76b6 1fbd 9ce4 3dbe c40d 77bc
00000270: 2f3e 4e3d 3647 533e 8027 5ebc ab78 e83b
00000280: f472 58bd 8878 e23d 058a 843d 9204 2dbd
00000290: 3f3d 20bd 99fb 12be 1bf8 973d 467f 943d
000002a0: dd51 aaba 6619 81bc 6a58 1abe 5f85 55bb
000002b0: 5bf1 6f3d 22cd a03c 9e8b ad3d a5e2 c13d
000002c0: e333 643c e9c7 72bd f87c 143d ed7c 273e
000002d0: 09c4 c33d d3ab cabd 5b04 0dbd 007a bb3d
000002e0: ae10 1c3d 550f d4bd 0faf f93c 4f42 313d
000002f0: 0fea 213d 45a8 213d 81fe 7f3c 2172 b63d
00000300: 5f2d bdbd 358f 553d 1f47 cb3d 70c7 bbbb
00000310: 5ed3 13be 3999 2ebd fe6d f2bd 8de2 53be
00000320: 1070 a43d cff6 a6bc ef31 103d 87b7 ba3b
00000330: 4f11 d1bd c9d4 ee3d bcf4 f23b 997d 4b3e
00000340: 4dd2 2f3d 7f57 333d 38a7 653d 6aa8 81bd
00000350: 6820 b03d 4b46 82bc 71a0 45bd 145b 9b3d
00000360: 8f6b 2a3c e396 6dbc 9b86 85bd 9199 5cbd
00000370: f0a3 243d 0ac0 c13d 60a6 13be 3489 113e
00000380: 18b4 a0bd 631a 5b3d 5fde e43d 9f47 9d3d
00000390: 0319 963d 65b9 bdbd d83d e73d 4ad8 f93c
000003a0: 56d3 bb3c 0637 cb3c 9a06 19bc ed0c d03c
000003b0: c9a1 d9bd 2213 1fbd 0f65 25bd c728 033d
000003c0: 3b85 64bd 68c3 8abd 7295 9b3d ed61 99bd
000003d0: 12ee 32be 410e 43bd 64c1 b83d ad41 00be
000003e0: 738d 50bc 50fc 1b3d 0d25 a53d fefd 7b3d
000003f0: b794 a53d e954 3abc 2143 f73d 8230 db3d
-0.12169556 -0.0018696025 0.09778235 0.044972565 -0.08377388 -0.13302672 0.082410395 -0.0441023
-0.09757019 -0.060136944 0.15841481 -0.09739503 0.11234831 0.017244993 0.097089075 0.0808946
-0.027896183 -0.055702396 -0.031305585 -0.042157732 0.007383406 0.042280164 0.011934393 -0.14305459
0.09678407 0.093552105 0.03440368 -0.0034228493 0.065717764 -0.010513188 -0.11799948 0.16923843
-0.01703519 0.017285956 -0.051516995 0.08649301 0.02607027 0.26097274 0.11541475 0.056192312
0.10857603 0.052856304 0.09805167 0.122394204 -0.021095397 0.04726767 -6.5464454e-05 0.055965226
-0.016830653 -0.033183374 -0.07683822 -0.0069656605 0.033632588 -0.049357854 0.021076864 0.14468169
0.11603485 0.0718436 -0.052567992 -0.10498931 -0.020900961 -0.02095559 -0.08308832 -0.15136601
-0.037610665 -0.10037503 -0.035481878 0.07330354 0.057592902 -0.04096934 0.02657504 0.13926873
0.09921813 0.14622776 0.10062792 -0.0619434 0.10984782 0.034622867 0.10855094 -0.00386041
0.04547169 0.025122264 0.04458322 0.039256226 -0.059007186 0.036217805 -0.1563108 -0.047200754
-0.059467666 -0.020807093 0.07664833 0.02760088 -0.08178965 0.26184946 -0.028093614 0.09149592
-0.094098195 0.084886044 0.13721621 0.13887805 -0.103875436 0.036548615 -0.0404576 0.1299459
0.10535294 0.1396709 0.02470308 0.0064607915 0.07886832 -0.014358168 0.12711127 -0.064029306
-0.09384699 0.08158951 -0.023972582 0.059560344 -0.033541493 0.070751145 -0.050574593 -0.061977625
0.12201938 0.054009277 -0.0146274185 -0.03511908 -0.10455444 -0.065845095 0.03596855 -0.0347541
-0.1636884 -0.029196138 -0.15985419 -0.10750271 -0.09479933 0.0738965 0.200526 0.016443916
-0.046942923 0.05774341 0.1442533 0.059241213 -0.14940956 0.070253596 0.099976406 0.09133603
0.042507328 0.04730024 0.114448905 0.03032841 0.076257095 0.07523474 0.1349608 -0.024020305
0.10430299 -0.038992368 -0.18544239 -0.015078966 0.05035227 0.20632634 -0.013559222 0.007094463
-0.052844003 0.11058146 0.06471638 -0.042240687 -0.03912091 -0.1435379 0.07420369 0.07250838
-0.0012994368 -0.015759181 -0.1507279 -0.0032580716 0.058579784 0.019629065 0.084738955 0.09467057
0.013928386 -0.05927268 0.036251992 0.16356249 0.09558875 -0.09896054 -0.03442798 0.09154129
0.038101844 -0.10354487 0.030478982 0.043276127 0.039529856 0.039467115 0.015624643 0.08908487
-0.092371695 0.052138526 0.09925675 -0.005730562 -0.14436099 -0.042626593 -0.118373856 -0.20691891
0.08029187 -0.02038136 0.03520387 0.0056981477 -0.102083795 0.11661679 0.0074144285 0.1987213
0.042925168 0.043784615 0.056067675 -0.063309506 0.08599931 -0.015902659 -0.048248712 0.07585731
0.0104016205 -0.014501306 -0.065198146 -0.05385739 0.040195405 0.09460457 -0.14418936 0.14212495
-0.0784685 0.05349196 0.111752264 0.07679676 0.07328989 -0.09263877 0.11291093 0.030498642
0.022927921 0.02480651 -0.009339953 0.025396788 -0.10626561 -0.038836606 -0.04037958 0.03202131
-0.05579112 -0.06775552 0.07596864 -0.07489381 -0.17473629 -0.047621015 0.09021261 -0.12525053
-0.012729037 0.03808242 0.080637075 0.061521523 0.08085006 -0.011372783 0.12073351 0.107026115

fc2.bias f4 [84]
00000000: 0919 e93d 4114 88bc 66df fabb 76e4 c2bd
00000010: 22d7 cc3d a419 77bd f058 0b3e 7bd5 d53b
00000020: 2145 523d ae28 9c3c c299 913d bf85 0e3d
00000030: 470c b93d c6e4 913d b4db 3dbd 2f22 b63d
00000040: 47ec 713d 42d3 a83d 5b60 e83b 3b7e d3bc
00000050: f49f 51bc 0ead 39bd 3c7f 943d 5cc5 1e3d
00000060: d58f 6bbd c099 8d3d 10df c83d ad2d dc3c
00000070: c691 9e3d 7ff9 8fbc 3e61 3c3d 6f14 21bd
00000080: 6ed3 bc3c 3e9a fb3c 2989 733d 7ea6 b7bc
00000090: a207 a73c e5c4 cebb 65cd e53c 14e9 08bd
000000a0: 48ac 6cbd bd5c acbd 1e67 02bd 4ada 14be
000000b0: f109 7ebd befe 7e3d 9ca1 8d3c 7b52 c2bd
000000c0: 8eb0 1ebd bd3d a43d 0c42 863a 49fa df3c
000000d0: 7158 563c 679d 4dbd ca18 c63d 1579 53bc
000000e0: 0a46 f6bd 2a33 863d 6e1e 963d 431d 7bbc
000000f0: 9c85 4d3d d57c c83d 9186 cdbd 76d8 393d
00000100: b79c 86bd 43d6 0dbd fb1d 40bd ccb1 87bd
00000110: dad5 283d fab7 a3bd 35ce 1f3d 1a84 3bbd
00000120: b641 18bd 74ac bbbc 0a1d ca3c 305d f93d
00000130: 7280 a1bd e8ce cc3c f379 d5bd 54ae bfbd
00000140: 3218 c83d 7794 02bd 276c 21bd c439 e0bc
0.11381728 -0.01661122 -0.0076560257 -0.09516232 0.10001971 -0.060327187 0.13608146 0.006525693
0.051335458 0.019062366 0.07109405 0.03479552 0.09035545 0.07123713 -0.046352103 0.08893239
0.059063222 0.08243419 0.0070915646 -0.025817027 -0.012794483 -0.045331053 0.072508305 0.038762435
-0.057510216 0.06914091 0.09808171 0.026877249 0.07742648 -0.017575024 0.045991175 -0.039326128
0.023050036 0.030713197 0.059456978 -0.022418257 0.020389382 -0.0063100928 0.028052041 -0.033425406
-0.057781488 -0.08416126 -0.03183662 -0.14536396 -0.0620212 0.06225466 0.017288975 -0.09488388
-0.038742594 0.08019588 0.0010243072 0.027341025 0.0130826095 -0.05019894 0.09672697 -0.012907286
-0.12025078 0.065527275 0.07330023 -0.015326801 0.050176248 0.09789435 -0.10035432 0.04537245
-0.0657286 -0.034628164 -0.04690359 -0.06625709 0.04121957 -0.07994075 0.039015014 -0.04578028
-0.03717204 -0.02290938 0.02467205 0.12175977 -0.07885827 0.025001004 -0.104236506 -0.09359422
0.0977024 -0.03187987 -0.039409783 -0.027371295

fc3.weight f4 [10, 84]
00000000: 9a1a b4bc 95fb 16be 6c0f 08be b2cb edbc
00000010: 988d 1cbd 7b60 9b3c 9057 66bd a0e8 9ebd
00000020: a379 f1bc 5d8e e5bd 1f2b 70bd 9efa f23c
00000030: e0df b63c bfeb e13d ab29 93be bddf a03d
00000040: 697e 273d 001c 6f3c ee96 393e 3194 143e
00000050: 6a62 2abe 332d 0fbe abcb 3cbe 13dc b1bd
00000060: f088 5ebe 2244 01bd 8b35 90bd 475e b63d
00000070: 5d6b 053d 029e e13d 88cb 633d 11d5 14bc
00000080: 5807 c9bd 0f45 03bd 1e1a 8a3d 7ced 893d
00000090: 010d 893d e863 2abe 5898 c93d 2b34 35bc
000000a0: a2ef 72be 7127 d63c 783e 65bd dec2 2bbd
000000b0: 9011 35be 3e40 a2bd 7860 5bbd 1f4a 28bd
000000c0: eee4 4abe 7fd0 f13d c67a 6d3d 519e c13d
000000d0: a78d f9bd c426 ccbd b8df a03d 369c 6dbd
000000e0: 7a51 04bd 3c0a 30be d549 8b3d 2628 043e
000000f0: d0ec f93d 7f3d 2cbd 726a e6bd 2685 e1bd
00000100: 917c 6e3d 7e80 06be a436 473c 9337 9a3d
00000110: 4831 9dbd cccd 8c3c 840c e9bb e3bc 32be
00000120: 4ee0 0cbe be55 9d3d 779a b23d 2696 0dbe
00000130: 58ca f23c 29b9 95bd 31b2 fcbb d50d 103c
00000140: e69d 10be c0b4 153e c9c3 e43d 3e5f 50bd
00000150: 3a36 2f3d e67b d83d 9455 e0bd 8eda 583d
00000160: 40bf 043e e6af 503e e23f 993d fd3d 42be
00000170: 0190 2e3e 9f05 94bd 78df 43bc b277 33be
00000180: 0a1b 3ebe a9c9 bebc 3e32 1bbe 741f 6b3d
00000190: 6bb9 cdbd 2e12 04bd 3840 ddbd 689e cb3d
000001a0: b14a 5c3c 984f 3a3b 58cb 753e 2be1 d1bd
000001b0: 1bb8 bcbc bd5f 03be e416 e63b cb57 123d
000001c0: 187c 28be 37cd 513d dc06 1f3e 3910 ab3d
000001d0: ebc2 62bd cd43 f9bc 2aa4 873d fd52 f33d
000001e0: 518f e1bc b828 acbc 35b2 69bd 07c9 2fbe
000001f0: 04f1 c2bc 8a21 3c3d df05 e03d 4292 0ebe
00000200: c742 7c3d 260e edbd 9ca2 993d ec03 03be
00000210: 118b 13be ac44 5cbd 2259 f93c 0fc8 80be
00000220: 2481 1bbc 9707 153d b22c f1bd ddf2 2fbe
00000230: 78eb c7bd 8eaf ff3d ed8f 8d3d defc 08be
00000240: 428e 413e c8a0 09bd fbd7 f5bc eb19 11bd
00000250: 2fcc a63d 82cb 773b e586 49be 6dcd 863d
00000260: 613c da3d 7a7e 8ebd c51e b9bc 36de b33c
00000270: 2c93 dbbd fd2c cfbd c6b4 57be be56 d93c
00000280: b790 4b3d 9d2a 003d 272e 72bd 10f0 b9bd
00000290: 22e5 a3bd 2880 7fbd 64c0 b4bd bb8c 9e3d
000002a0: c5e8 2bbe fb66 0c3e 330f 52bd 03e0 bbbb
000002b0: 31e6 95bd d53e 93bd b804 7ebc 328a e2bd
000002c0: 788b 52bd abbd cbbd 277d 97bc 8fc7 a7bd
000002d0: e24e d4bc c5d5 ebbc 6fd8 e3bd 74c8 41be
000002e0: 196f 0bbe 7165 12be c634 2dbd dc72 0b3e
000002f0: 36e8 e73d 1ba0 f23d 7e97 c9bd 4925 50be
00000300: a154 a13b 0782 da3d e65b 7c3d 6521 cf3d
00000310: 3ba1 ce3d 436d e6bc d914 37bc d042 18be
00000320: fef0 5cbd c6a4 bc3d 850e 8e3c 9bd6 0cbe
00000330: e11d 0ebe 8e9c 393a 75e5 85bc d742 0b3e
00000340: 5e3c d9bd 4791 6d3d a6a5 a3bd 316a 203a
00000350: 1067 3e3c 7d25 733d f36a a63d 2aad 773c
00000360: 3f5b c33b be75 023e d98b 58bb 5b36 62be
00000370: 6400 c33c 06b8 a4bd a13f 2a3e 5ad3 1b3e
00000380: 0d93 14bd 1ba8 383d 94d6 043d 581c 78be
00000390: 0f8d f53d f0fa 193d 99cf cfbd 7aad 90bd
000003a0: 3c61 873d 5ed4 2e3e 90fa 043d 6f45 833d
000003b0: 40d2 e03d 9e41 9bbc 7d9b 23bd 8877 5fbd
000003c0: bbfc ad3c dd8f bf3d fb79 a2bd d35d 22be
000003d0: d2bb 303d 71ef 733c 0f59 8fbd 03b7 aa3d
000003e0: 0e9a a3bc e192 89bd 9712 163e cb4d 1f3c
000003f0: a5b4 81bd 7370 8cbd 82ee d7bd b997 92bd
-0.02198534 -0.14744408 -0.13287133 -0.029027794 -0.03822097 0.018966904 -0.05623585 -0.077592134
-0.029476946 -0.11208794 -0.058634873 0.02966052 0.022323549 0.11031293 -0.28742728 0.07855175
0.04089204 0.014594078 0.18123981 0.14509656 -0.16639104 -0.13982086 -0.18437068 -0.08684554
-0.21731925 -0.031559117 -0.070414625 0.08904701 0.032573093 0.11016466 0.055614024 -0.009084002
-0.09815854 -0.03204828 0.06743263 0.0673475 0.066919334 -0.16639674 0.098435104 -0.011059801
-0.23724225 0.026141854 -0.055967778 -0.041933887 -0.17682481 -0.079224095 -0.053558797 -0.041086312
-0.19813892 0.118073456 0.057978414 0.094540246 -0.12185221 -0.099683315 0.07855171 -0.058010302
-0.032304265 -0.17191404 0.06801192 0.1290594 0.122033715 -0.042050835 -0.112507716 -0.11011724
0.058224265 -0.13134953 0.012159023 0.07530131 -0.07675415 0.017187975 -0.0071120877 -0.17454867
-0.1375744 0.0768237 0.08720868 -0.13826808 0.0296375 -0.07310707 -0.0077116718 0.00879236
-0.14122733 0.14619732 0.111701556 -0.05087208 0.042776324 0.10570507 -0.10953823 0.052942805
0.12963581 0.203796 0.07482888 -0.18968959 0.1704712 -0.07227635 -0.011955135 -0.17526129
-0.18565002 -0.023289518 -0.15155885 0.057403043 -0.10045131 -0.0322439 -0.108032644 0.09942323
0.013445542 0.002842879 0.2400335 -0.102480255 -0.023037007 -0.1282949 0.0070217717 0.035728257
-0.16453588 0.0512211 0.1552996 0.083527036 -0.05536167 -0.030427838 0.06623109 0.11881063
-0.027534159 -0.02101551 -0.057054717 -0.1716653 -0.023796566 0.045930423 0.1093862 -0.1392298
0.06158712 -0.11574964 0.075017184 -0.12794465 -0.14408518 -0.053776428 0.03043801 -0.25152633
-0.009491239 0.03638419 -0.11776103 -0.17182489 -0.09761709 0.12484656 0.06912217 -0.13377711
0.18901923 -0.0336006 -0.030010214 -0.035425108 0.08144414 0.003781051 -0.19680364 0.065821506
0.106560476 -0.06957717 -0.02259768 0.021956544 -0.1072143 -0.10116003 -0.21065053 0.02653062
0.049698558 0.03129064 -0.059126046 -0.090789914 -0.08002688 -0.06237808 -0.08825758 0.07741686
-0.16788013 0.13711159 -0.051284026 -0.0057334914 -0.07319296 -0.07189719 -0.015504055 -0.11061515
-0.05140254 -0.09948286 -0.018492294 -0.0819236 -0.02591652 -0.028788457 -0.11125266 -0.18924123
-0.13616599 -0.1429651 -0.042286657 0.13618034 0.113235876 0.11846944 -0.09843348 -0.20326723
0.0049234186 0.10669332 0.06161108 0.101137914 0.10089346 -0.028128272 -0.011174404 -0.14869237
-0.053940766 0.092111155 0.017340908 -0.1375374 -0.13878585 0.00070805184 -0.016344765 0.13599716
-0.10607217 0.057999875 -0.07990579 0.00061193394 0.011621252 0.059361923 0.08125868 0.015116969
0.005961805 0.12740228 -0.003304234 -0.22091047 0.023803897 -0.08042912 0.16625835 0.15217343
-0.03627305 0.045082193 0.0324312 -0.24229562 0.119897954 0.03759283 -0.10147018 -0.07064338
0.06610343 0.17073199 0.032465518 0.06409728 0.10977602 -0.018952187 -0.039943207 -0.054557353
0.021238675 0.093536116 -0.07933422 -0.15856104 0.04314787 0.01488863 -0.069994085 0.08335688
-0.01997092 -0.06717468 0.14655529 0.009723137 -0.06333283 -0.068573855 -0.10543539 -0.07157845

fc3.bias f4 [10]
00000000: ba96 313c f5d5 68bd f024 06bd 7dce fb3b
00000010: eb26 babd 12e6 f3bd 407e bc3d 8848 0fbe
00000020: f68b 3ebd 0e18 a0bc
0.010839159 -0.05684467 -0.03275007 0.0076845274 -0.09089454 -0.11909117 0.09203768 -0.13992512
-0.046520196 -0.01954272
